Models/5 Normal Experiment/optical_wghts.pth (torch_old, 24148 bytes, 44 tensors)

encoder.0.weight f4 [16, 2, 3, 3]
0	0x3de446cb	0.11146315
1	0xbce6e6e2	-0.028186265
2	0xbd1f4fc2	-0.038894422
3	0xbe896024	-0.26831162
4	0x3debcf82	0.11514188
5	0xbe7d49c4	-0.2473517
6	0xbe8d6d9a	-0.27622682
7	0xbda9a067	-0.082825474
8	0xbd374fe6	-0.04475393
9	0xbe46a6aa	-0.19399515
10	0x3e1a7464	0.15083462
11	0xbe18da6a	-0.14927068
12	0xbe4af7d7	-0.19821106
13	0xbe04eeee	-0.1298177
14	0xbe29e825	-0.16592462
15	0xbe5489a8	-0.20755637
16	0x3dc853ea	0.0978163
17	0xbd8fd567	-0.07023125
18	0xbd12f4af	-0.03587788
19	0x3d96b4c0	0.07358694
20	0x3e18ead1	0.14933325
21	0x3e5ed734	0.21761781
22	0x3e6d2798	0.23159635
23	0x3d1cb8c8	0.03826216
24	0x3d0f6db9	0.03501675
25	0x3e1bb34b	0.15205114
26	0xbe1462d9	-0.14490832
27	0xbe00ce45	-0.12578686
28	0x3e834cdb	0.25644574
29	0xbe01d8ce	-0.1268036
30	0xbdc0fde2	-0.09423424
31	0x3e63acab	0.22233836
32	0x3d41b332	0.047290035
33	0x3e22e7dc	0.1590876
34	0x3d691d73	0.05691285
35	0x3e7a6d1b	0.24455683
36	0x3e61067e	0.21975133
37	0xbdd0af21	-0.10189653
38	0xbd8e9068	-0.06961137
39	0x3e66611f	0.22497986
40	0x3d9138e7	0.070909314
41	0xbdbb1fee	-0.091369495
42	0x3e448094	0.19189674
43	0x3e2f7efe	0.17138287
44	0x3cc4427c	0.023957483
45	0x3c4d66ea	0.012536744
46	0x3baa0e6e	0.0051897084
47	0x3cf607ff	0.03003311
48	0xbd8868c2	-0.06660606
49	0x3e896f98	0.26842952
50	0xbe2df80a	-0.1698915
51	0x3e32b2e4	0.17451054
52	0x3e84c2a8	0.2592976
53	0xbe239016	-0.15972933
54	0xbe7e5fa2	-0.24841169
55	0x3e43494a	0.19070926
56	0xbe012b11	-0.12614085
57	0xbd387f1d	-0.0450431
58	0xbe50190d	-0.20322056
59	0xbe242e82	-0.16033366
60	0xbafbfa03	-0.001922429
61	0xbe91874d	-0.2842354
62	0x3db66000	0.08905029
63	0xbdeefd48	-0.11669403
64	0xbe200a57	-0.15628944
65	0x3df423be	0.1192088
66	0x3e032f71	0.12811066
67	0x3e49bbe1	0.19700576
68	0xbe64ca27	-0.2234274
69	0x3d48da54	0.04903634
70	0xbdfeb244	-0.12436345
71	0x3e216884	0.15762526
72	0x3e83b0ea	0.25720912
73	0xbd33038c	-0.043704554
74	0x3e5b8da5	0.21440752
75	0x3e2c1561	0.1680503
76	0x3e80addf	0.25132653
77	0xbe070107	-0.13183986
78	0x3e304fa4	0.1721788
79	0x3e3f6b3c	0.1869325
80	0x3db33cda	0.08751841
81	0xbe3d6b4c	-0.18497962
82	0xbda46a0c	-0.08028039
83	0x3de0b14f	0.10971319
84	0xbe4d42ad	-0.20044966
85	0xbd97e74a	-0.07417162
86	0xbe26d6ba	-0.16292849
87	0x3c69f4e8	0.014279582
88	0x3e0ac3bc	0.13551229
89	0xbe76972c	-0.24081105
90	0xbe139f87	-0.14416324
91	0xbd382dc0	-0.044965506
92	0xbe3600eb	-0.17773788
93	0x3c983f54	0.018584885
94	0x3d665f31	0.056243125
95	0x3c397b10	0.011320844
96	0xbe2d3bac	-0.16917294
97	0x3e5e42d1	0.21705176
98	0x3da07333	0.078344725
99	0x3de14ae2	0.11000611
100	0x3dd46b90	0.103720784
101	0xbd8c5d3f	-0.06853723
102	0xbe279f81	-0.1636944
103	0x3e7ad651	0.24495818
104	0xbd065857	-0.03279909
105	0x3e35087b	0.17679016
106	0x3e7108e9	0.23538555
107	0x3e44836f	0.19190763
108	0xbe6dee70	-0.23235488
109	0xbe648d08	-0.22319424
110	0x3d9be105	0.076112784
111	0xbe6c97dc	-0.23104805
112	0xbc673c5a	-0.01411351
113	0xbdb57074	-0.08859339
114	0x3cf22327	0.029557778
115	0xbda92f44	-0.08260968
116	0x3e7acfcb	0.24493329
117	0x3d8de434	0.06928292
118	0xbcfd5638	-0.030924901
119	0x3cef0895	0.029178897
120	0xbdfbddc3	-0.12298157
121	0x3c112af8	0.008860342
122	0xbc10a3d6	-0.008828124
123	0x3dd240c2	0.10266258
124	0x3d5a9edd	0.05337416
125	0x3ac930f0	0.0015349668
126	0x3b319f60	0.0027103052
127	0x3de61ed8	0.11236352
128	0xbe8efce2	-0.2792731
129	0x3deea384	0.11652282
130	0x3e26e6eb	0.16299026
131	0x3aaea4bd	0.0013324242
132	0xbe6e6192	-0.23279408
133	0x3cc4509f	0.023964224
134	0xbe538645	-0.20656689
135	0x3d561455	0.052265484
136	0x3e7f33be	0.24922082
137	0x3c92dfb5	0.017928937
138	0xbd852432	-0.06501044
139	0x3e48c2b9	0.19605531
140	0x3e744818	0.23855627
141	0x3b4220ce	0.0029621604
142	0xbe4a164f	-0.19735073
143	0x3dcaa352	0.09894432
144	0x3e6dc34c	0.23219031
145	0xbd92c317	-0.07166117
146	0xbd98de96	-0.0746433
147	0x3e1b6e65	0.15178831
148	0x3e10be33	0.14135055
149	0x3e2c0517	0.16798817
150	0xbe491095	-0.19635232
151	0xbe057e5c	-0.13036484
152	0x3e7137f1	0.23556496
153	0x3ea2fef0	0.31835127
154	0xbbc0befc	-0.005882142
155	0x3d02e5c8	0.031957418
156	0x3da95592	0.08268274
157	0x3e67f103	0.22650532
158	0xbd8cdde8	-0.06878263
159	0xbde9bc31	-0.11412848
160	0xbdbb4a99	-0.09145088
161	0x3e901832	0.2814346
162	0x3e258987	0.16165744
163	0x3e55dde0	0.2088542
164	0x3e79432d	0.24342032
165	0xbddff623	-0.10935619
166	0x3e363861	0.17794944
167	0xbe320b49	-0.17387117
168	0x3cc350ce	0.023842242
169	0x3dd56d94	0.10421291
170	0x3e56edd9	0.20989169
171	0xbc9af4ec	-0.018915616
172	0xbe341bbb	-0.17588703
173	0xbe452fb5	-0.1925648
174	0xbe332699	-0.17495193
175	0xbd11f713	-0.03563602
176	0x3c74585e	0.0149136465
177	0x3c10728f	0.008816375
178	0xbe784bca	-0.24247661
179	0x3db3c66f	0.087780826
180	0x3dae0c43	0.084984325
181	0x3ced9ac5	0.029004464
182	0x398c4ca9	0.00026759997
183	0x3d823a40	0.063587666
184	0xbd62e45d	-0.055393565
185	0xbd900ceb	-0.07033714
186	0xbd260f0d	-0.040541697
187	0x3e6869d2	0.22696617
188	0xbd720374	-0.059085324
189	0xbe92b58f	-0.28654143
190	0xbe614667	-0.21999513
191	0xbd315171	-0.04329056
192	0xbe401aaf	-0.18760179
193	0xbdbbdaa9	-0.091725655
194	0x3d24f463	0.040272128
195	0x3cb139c2	0.021633986
196	0xbe71c077	-0.23608576
197	0xbe70b132	-0.23505095
198	0x3e025cdb	0.12730734
199	0x3e01201f	0.1260991
200	0x3e218b3f	0.15775774
201	0x3d3bfa3f	0.04589295
202	0x3d623c51	0.055233303
203	0xbb8e0707	-0.004334334
204	0xbdc71c31	-0.09722174
205	0xbc2afe4c	-0.010436606
206	0x3e2300b1	0.15918233
207	0x3e0c261b	0.13686411
208	0x3e1fb163	0.15595011
209	0x3e66072c	0.22463673
210	0xbe15f1c0	-0.14643002
211	0xbd95b5ec	-0.073100895
212	0xbcfb7725	-0.030696461
213	0x3e3ffc22	0.18748525
214	0x3e7f5b0d	0.24937077
215	0xbd79af9c	-0.06095849
216	0x3d775859	0.06038699
217	0x3e5c36cd	0.2150528
218	0xbcaa43c5	-0.020784268
219	0x3e369e67	0.17833863
220	0xbd876479	-0.066109605
221	0x3e090e2d	0.13384314
222	0xbea92ced	-0.33042088
223	0xbe87e670	-0.26542997
224	0x3dc93948	0.09825379
225	0x3eabd78d	0.3356289
226	0x3d8ce1a0	0.06878972
227	0x3d581e8b	0.052763503
228	0xbe0245aa	-0.12721887
229	0x3e6799a3	0.22617202
230	0x3ea3adf5	0.31968656
231	0xbf0882ad	-0.53324395
232	0xbeea8139	-0.45801714
233	0x3d931fad	0.07183776
234	0xbdc82fdf	-0.09774756
235	0xbe6062f1	-0.21912743
236	0xbdeaaf68	-0.11459237
237	0xbe021e05	-0.12706764
238	0xbe7aead5	-0.24503644
239	0x3dd490d3	0.103791855
240	0xbdccfe64	-0.10009459
241	0xbdebae18	-0.11507815
242	0xbdb66421	-0.08905817
243	0x3dbe7865	0.09300307
244	0xbe1a7c6a	-0.15086523
245	0x3e55d602	0.20882419
246	0xbe00a6ca	-0.12563625
247	0x3e2894db	0.16463034
248	0x3d43ec20	0.04783261
249	0x3e8cbc72	0.27487522
250	0x3e7a1f99	0.24426116
251	0x3d1f1e63	0.03884734
252	0xbe453ea1	-0.19262172
253	0xbe561fd1	-0.20910574
254	0x3d95e094	0.073182255
255	0xbe54fd4d	-0.20799752

encoder.0.bias f4 [16]
0	0xbda18718	-0.07887095
1	0x3e07d540	0.13264942
2	0x3c9070cc	0.01763191
3	0xbd8db95d	-0.06920121
4	0xbdbe4326	-0.09290151
5	0xbd999fd0	-0.07501185
6	0xbe163daa	-0.1467196
7	0x3c08cfb5	0.008350302
8	0xbe709bdb	-0.23496954
9	0xbdef4138	-0.11682361
10	0x3e15bdf9	0.1462325
11	0x3cf3e48a	0.029772062
12	0x3e4f6dc3	0.20256715
13	0xbe1d1d5c	-0.15343231
14	0x3d4f5ee8	0.05062762
15	0xbe65c784	-0.2243939

encoder.1.weight f4 [16]
0	0x3f815ed9	1.010707
1	0x3f7d6bed	0.98992807
2	0x3f7cea38	0.9879489
3	0x3f76861b	0.9629838
4	0x3f836a5b	1.0266832
5	0x3f7a6304	0.97807336
6	0x3f7dc4ff	0.9912872
7	0x3f7c498f	0.9854974
8	0x3f771e9c	0.9653108
9	0x3f80b9fb	1.0056757
10	0x3f835acc	1.0262084
11	0x3f7ca673	0.9869148
12	0x3f7c8b83	0.9865038
13	0x3f871904	1.0554509
14	0x3f81e76f	1.0148753
15	0x3f7f2f42	0.99681485

encoder.1.bias f4 [16]
0	0xbdd1bf4e	-0.102415666
1	0x3d069f58	0.032866806
2	0x3b98e68b	0.0046661547
3	0x3e14d446	0.14534101
4	0xbc95f366	-0.018304538
5	0x3d934db2	0.071925536
6	0xbdb4d7ff	-0.088302605
7	0x3d95fbb9	0.07323403
8	0x3d2483ef	0.040164884
9	0xbd587ccb	-0.052853387
10	0xbd2fee1f	-0.0429517
11	0xbceee252	-0.029160652
12	0xbbde8ca8	-0.00679167
13	0x3db029a5	0.08601693
14	0xbdcac9fa	-0.09901805
15	0x3daaf3ad	0.08347259

encoder.1.running_mean f4 [16]
0	0xbebb9d11	-0.3664327
1	0x3ec25e70	0.37962675
2	0x3e569bda	0.2095789
3	0xbe7de8ea	-0.24795881
4	0x3db7bafd	0.08971212
5	0xbc2f7551	-0.010709123
6	0xbe82e12e	-0.25562423
7	0x3ca23ac9	0.019803422
8	0xbd37cc0f	-0.04487234
9	0xbc434ac0	-0.011919677
10	0x3cf3457b	0.029696217
11	0x3e76684c	0.24063224
12	0x3e4e86bd	0.20168586
13	0xbe90e99d	-0.28303233
14	0xbeab09c0	-0.33405876
15	0xbe040526	-0.12892589

encoder.1.running_var f4 [16]
0	0x4244a12e	49.157402
1	0x42052af5	33.29195
2	0x418f3b05	17.903818
3	0x4192ca08	18.348648
4	0x4260d08a	56.20365
5	0x41d02df6	26.022442
6	0x410744db	8.45431
7	0x41833476	16.400616
8	0x41c54f97	24.663862
9	0x42224f5c	40.5775
10	0x4278015e	62.001335
11	0x41d77bcd	26.93545
12	0x3f70d449	0.9407392
13	0x425321c5	52.782978
14	0x42962b92	75.0851
15	0x41bec404	23.84571

encoder.4.weight f4 [8, 16, 3, 3]
0	0xbcec47a0	-0.028842747
1	0xba19730c	-0.000585363
2	0xbdafdb03	-0.08586695
3	0xbdb37df1	-0.08764256
4	0xbd3ec302	-0.046572693
5	0xbdf19a6c	-0.11797032
6	0xbcb6cdb6	-0.022314887
7	0xbe0cb79b	-0.13741915
8	0x3c797ec7	0.01522798
9	0x3de26bf4	0.11055747
10	0x3de055af	0.10953843
11	0x3ce40b87	0.027837528
12	0x3d9dd2f4	0.07706252
13	0x3da06fa7	0.07833796
14	0x3d200184	0.039063945
15	0x3d27ae0e	0.040937476
16	0x3d845ca6	0.06462984
17	0x3df94d7d	0.12172983
18	0x3cad6f70	0.021171302
19	0x3da32f5f	0.0796802
20	0xbc320933	-0.010866451
21	0xbbc971d6	-0.0061476035
22	0xbc122242	-0.0089193005
23	0x3d064548	0.032780915
24	0x3d142921	0.036172036
25	0xbd55a5c4	-0.05216004
26	0x3df551e9	0.11978514
27	0x3da336de	0.079694495
28	0x3c322b63	0.010874602
29	0xbd11766e	-0.035513334
30	0x3d04ec77	0.032452073
31	0x3d9ac51b	0.07557126
32	0x3ceaf718	0.028682277
33	0x3dcfc9c0	0.10145903
34	0xbd05657e	-0.032567494
35	0xbd1da60f	-0.038488444
36	0xbd95303a	-0.07284589
37	0x3d312a18	0.043253034
38	0xbc8349eb	-0.016026458
39	0x3cc067cb	0.023486992
40	0x3ce75b13	0.02824167
41	0xbcb8886d	-0.02252599
42	0xbda13b11	-0.07872594
43	0xbd9536e1	-0.07285858
44	0xbd077cc4	-0.03307797
45	0x3dad7d45	0.08471159
46	0x3d7f857e	0.062383167
47	0x3da89db7	0.08233207
48	0xbc90a1ad	-0.017655218
49	0x3b8fb50e	0.004385597
50	0x3d44395b	0.04790626
51	0x3d8ff4bb	0.070291005
52	0x3cf26725	0.029590199
53	0x3d4f026c	0.05053942
54	0xbcadf84a	-0.021236558
55	0xbd0d4d52	-0.034497567
56	0xbd555e60	-0.052091956
57	0xbcd92849	-0.026508467
58	0x3d263929	0.040581856
59	0xbd1b7bc1	-0.037959818
60	0xbdc4e49b	-0.096139155
61	0xbdefc027	-0.11706572
62	0xbc9b5329	-0.018960552
63	0x3dda6f46	0.10665755
64	0x3d7ce314	0.061739996
65	0x3db3cbe6	0.08779125
66	0x3b9a3569	0.004706074
67	0x3d3fb07f	0.04679918
68	0x3d32c167	0.043641474
69	0x3d6f0dc0	0.058362722
70	0xbd088ba2	-0.03333629
71	0x3c038077	0.008026234
72	0xbb4ae9e8	-0.0030962173
73	0x3d7ff751	0.06249172
74	0xbbf39257	-0.0074332166
75	0x3de096a3	0.10966232
76	0x3c7806da	0.015138352
77	0x3d564ea0	0.052321076
78	0xbc11f168	-0.008907653
79	0x3d801570	0.06254089
80	0x3d9b4845	0.07582144
81	0xbbd6b4d5	-0.0065523186
82	0x3d7a009e	0.061035745
83	0x3d1cec69	0.038311396
84	0xba853aa1	-0.0010164568
85	0xbd3126dd	-0.043249954
86	0x3ba5e84a	0.0050630914
87	0x3c21bc6d	0.009871584
88	0xbcee5519	-0.029093312
89	0xbd58b325	-0.05290522
90	0xbdb8de05	-0.09026722
91	0x3d36dee6	0.044646166
92	0x3d67df86	0.056609653
93	0x3bf22ce4	0.0073906053
94	0x3cf5b79e	0.029994782
95	0xbdf1f106	-0.1181355
96	0xbdc95198	-0.09830016
97	0xbd8fb462	-0.07016827
98	0xbdb6315e	-0.08896135
99	0x3dc33da4	0.095332414
100	0xbd15ecef	-0.03660291
101	0xbca35728	-0.01993902
102	0xbc0afc91	-0.008483068
103	0xbce8930c	-0.02839043
104	0x3dcaad80	0.09896374
105	0x3d85ec2d	0.065391876
106	0x3d11fc91	0.035641257
107	0x3d667a30	0.05626887
108	0x3a6518f1	0.00087393733
109	0xbd6c61ea	-0.057710566
110	0xbd04b4dc	-0.032399043
111	0x3d5cb35e	0.053881995
112	0xbd329fa2	-0.04360927
113	0xbd2d7653	-0.04234917
114	0x3d075070	0.033035696
115	0x3d2a0e3e	0.04151749
116	0xbd4dcbf8	-0.050243348
117	0x3e086d5b	0.13322966
118	0x3e1a64be	0.15077493
119	0x3e0873f2	0.1332548
120	0x3cc0b307	0.023522867
121	0x3dcb9f85	0.09942535
122	0x3e13278d	0.14370556
123	0x3c1100f4	0.008850325
124	0x3e024387	0.12721072
125	0x3d0a1238	0.03370878
126	0xbcd6d305	-0.026223669
127	0xbe0db015	-0.13836701
128	0xbdfe8095	-0.12426869
129	0xbd6cfd5b	-0.057858806
130	0xbe0d9ac9	-0.13828577
131	0xbdb67cb2	-0.089105025
132	0xbcd2f18c	-0.025749944
133	0xbdf4b525	-0.11948613
134	0xbe12c5de	-0.14333293
135	0xbc0fe3a2	-0.008782299
136	0x3d68a4a2	0.05679763
137	0xbc12d6f2	-0.00896238
138	0x3db0e07c	0.08636567
139	0xbbfa6d33	-0.007642412
140	0x3dfcfb6d	0.12352643
141	0x3cfc94ea	0.030832727
142	0x3c94279a	0.01808529
143	0x3db8c07a	0.09021087
144	0xbc478d94	-0.012179751
145	0x3c974ed0	0.018470198
146	0xba0f19cd	-0.00054588617
147	0xbd1cc619	-0.03827486
148	0xbc606c34	-0.013697673
149	0xbd92dc28	-0.07170898
150	0x3d4151bd	0.047197092
151	0x3d225731	0.039633933
152	0x3aea2dfd	0.0017866489
153	0x3a1bfa1e	0.0005950051
154	0x3dc70436	0.097176
155	0x3b39d356	0.0028354726
156	0x3db3ea58	0.08784932
157	0x3ce1fdac	0.02758678
158	0x3d8c7362	0.06857945
159	0x3ced0377	0.028932316
160	0xbd846101	-0.064638145
161	0xbb8c6c4f	-0.0042853723
162	0x3d9714d3	0.07377019
163	0x3d23bd82	0.03997565
164	0xba84ae02	-0.0010122659
165	0xbd313fe3	-0.043273818
166	0xbd4fb1c8	-0.050706655
167	0x3cff5a11	0.031170877
168	0xbb94a4d0	-0.0045362487
169	0xbd11cea2	-0.03559745
170	0x3d027c78	0.031856984
171	0x3af3030e	0.0018540339
172	0x3c64af3b	0.013957794
173	0xbd54efe8	-0.051986605
174	0xbd683b90	-0.05669743
175	0xbd552fb9	-0.052047465
176	0xbd2138b3	-0.039360713
177	0xbb08c656	-0.002087017
178	0xbdbc1112	-0.091829434
179	0xbc5e4fe6	-0.013568854
180	0x3dcf0d07	0.10109907
181	0x3d922370	0.071356654
182	0x3c1b5089	0.00947965
183	0x3e031128	0.12799513
184	0x3cf368cf	0.029713063
185	0x3d9416f9	0.07230944
186	0x3e07dc35	0.13267596
187	0x3dd5bede	0.10436796
188	0xbba55a7a	-0.005046186
189	0xbd3d8fa4	-0.046279564
190	0xbdba7e49	-0.09106118
191	0x3d920715	0.07130257
192	0x3cfc3507	0.030787004
193	0xbdc1554d	-0.09440098
194	0xbd193746	-0.03740623
195	0xbdd4087c	-0.10353181
196	0xbd51afb5	-0.051192958
197	0xbd258b6f	-0.040416177
198	0xbde9d834	-0.114181906
199	0xbdc26dc8	-0.09493595
200	0xbcb6ca92	-0.02231339
201	0xbdb91c48	-0.09038597
202	0xbdcec6eb	-0.10096534
203	0xbde9e46f	-0.114205234
204	0xbdc6d692	-0.09708895
205	0xbd39c059	-0.045349453
206	0xbdb1edbd	-0.08687923
207	0xbcd109c2	-0.025517348
208	0x3d19df2f	0.03756636
209	0xbd9b7c01	-0.07592011
210	0x3d29bb39	0.041438315
211	0x3bfcae53	0.0077112108
212	0xbcaab02b	-0.020835957
213	0xbd35aa38	-0.044351786
214	0xbc6b59fd	-0.014364717
215	0xbd9e502f	-0.077301376
216	0x3d7e5a05	0.062097568
217	0x3dbb1eaa	0.09136708
218	0xbbf0e7d7	-0.007351856
219	0x3d0c95e8	0.03432265
220	0xbcaf2de9	-0.021384196
221	0x3df1e304	0.11810878
222	0x3d901e7a	0.07037063
223	0xbcb26286	-0.021775495
224	0x3d659136	0.056046687
225	0x3e084072	0.13305834
226	0x3dd0928e	0.10184203
227	0x3c86ad01	0.016439917
228	0x3ddcdafd	0.10783956
229	0xbce92e3d	-0.028464431
230	0x3de2fe55	0.11083666
231	0x3db51e58	0.08843678
232	0x3dcec320	0.10095811
233	0xbc345a53	-0.011007863
234	0xbc33bafa	-0.010969872
235	0x3d943434	0.072365195
236	0x3d4996b2	0.04921598
237	0x3d843953	0.06456246
238	0xbcac0431	-0.020998092
239	0x3d35556a	0.04427091
240	0x3c5e42d6	0.01356574
241	0xbd8add9b	-0.06780549
242	0x3d5f9ca3	0.05459274
243	0x3d5248ae	0.051338844
244	0x3da10204	0.078617126
245	0x3e0dcb03	0.13846974
246	0x3dc1d33a	0.094641164
247	0x3dbbdfce	0.09173547
248	0xbb0b27d2	-0.0021233452
249	0xbba41c2a	-0.00500824
250	0x3dc01dba	0.0938067
251	0xbcc0ba84	-0.023526438
252	0xbd8f3fd7	-0.06994598
253	0xbcc192da	-0.023629595
254	0xbd87681d	-0.06611655
255	0xbdda2c74	-0.1065301

encoder.4.bias f4 [8]
0	0x3c8b9cf7	0.01704262
1	0xbd13745f	-0.035999652
2	0x3c56575c	0.013082352
3	0xbd833d3f	-0.06408166
4	0x3d28e0bb	0.041229945
5	0x3bbab817	0.0056982148
6	0xbb98b6e6	-0.004660475
7	0x3d735d53	0.059415173

encoder.5.weight f4 [8]
0	0x3f87ef19	1.0619842
1	0x3f78e1cc	0.9721954
2	0x3f827d3a	1.0194466
3	0x3f6a1b5e	0.9144801
4	0x3f833387	1.02501
5	0x3f768f57	0.9631247
6	0x3f858197	1.0430173
7	0x3f7b5de3	0.98190135

encoder.5.bias f4 [8]
0	0x3d1d842c	0.038456127
1	0x3cff797b	0.031185856
2	0xbd3fa200	-0.046785355
3	0xbe1d1504	-0.15340048
4	0x3d84d3d0	0.064857125
5	0x3dda2023	0.10650661
6	0x3e5e2b6a	0.21696249
7	0x3d131c2a	0.03591553

encoder.5.running_mean f4 [8]
0	0x3f4257da	0.759153
1	0xbe9f8a3f	-0.3116016
2	0xbee6f3a9	-0.45107773
3	0xbe0eff3d	-0.13964553
4	0xbf206626	-0.62655866
5	0x3c999163	0.018746084
6	0x3e900493	0.2812849
7	0x3c7e182c	0.015508693

encoder.5.running_var f4 [8]
0	0x40a19c3c	5.0503216
1	0x407125f5	3.7679417
2	0x400b07b5	2.1723454
3	0x40191596	2.3919425
4	0x40808aef	4.0169597
5	0x3fe4ccd8	1.7875013
6	0x408d0c6d	4.407767
7	0x4002b94a	2.0425591

encoder.8.weight f4 [4, 8, 3, 3]
0	0xbe306a69	-0.17228092
1	0xbe6b23d3	-0.22962885
2	0xbe2f4b1a	-0.17118493
3	0xbe507ef0	-0.20360923
4	0xbe513ec5	-0.20434101
5	0xbe55b147	-0.20868407
6	0xbdd471a3	-0.10373237
7	0xbe209d62	-0.15685037
8	0xbd6fa742	-0.05850912
9	0x3d426624	0.04746069
10	0x3dce791c	0.100816935
11	0x3c8181a2	0.015808884
12	0xbcea0deb	-0.02857109
13	0x3d03a034	0.032135203
14	0xbbb0f982	-0.0054008374
15	0xbd9b050c	-0.07569322
16	0xbd0d314c	-0.03447084
17	0x3d76bb3f	0.060237166
18	0x3c36086d	0.011110407
19	0xbbf7ba0e	-0.0075600212
20	0x3d054f0f	0.0325461
21	0x3d9e5394	0.07730785
22	0x3dbfafbf	0.09359693
23	0xbc68490f	-0.014177575
24	0x3e2275b9	0.1586522
25	0x3e11cc4e	0.14238092
26	0x3d4f78de	0.050652377
27	0x3dbc6707	0.091993384
28	0xbd233b28	-0.039851338
29	0x3ca49ce3	0.02009434
30	0x3dd2dd9f	0.10296177
31	0x3d11ea12	0.035623617
32	0xbda61169	-0.081087895
33	0x3d4f8c2e	0.050670795
34	0x3d7e0fa6	0.062026642
35	0xbdc1def7	-0.09466355
36	0x3e559487	0.2085744
37	0x3da6f05d	0.081513144
38	0x3dff03e3	0.12451913
39	0x3d71ce33	0.059034538
40	0x3deefe15	0.11669556
41	0x3e182238	0.14856803
42	0x3d2e0309	0.042483363
43	0x3e1c3461	0.15254356
44	0x3e32d5dc	0.17464393
45	0xbe15f1d2	-0.14643028
46	0xbd8d8a56	-0.06911151
47	0xbd189f42	-0.037261255
48	0xbe52d76e	-0.20589992
49	0xbe4ab537	-0.1979569
50	0xbe7d571c	-0.24740261
51	0xbe15b0eb	-0.1461827
52	0xbe722aae	-0.23649094
53	0xbd4c66fd	-0.049902905
54	0xbd17e095	-0.037079412
55	0xbdbd2975	-0.09236423
56	0xbd6b30c8	-0.05741957
57	0xbdc8daf0	-0.09807384
58	0xbd089def	-0.033353742
59	0x3ce2faa9	0.027707415
60	0xbc803747	-0.015651358
61	0xbdad5ad7	-0.08464592
62	0xbd880ef0	-0.06643474
63	0x3ddda2df	0.10822081
64	0x3d822f36	0.06356661
65	0x3dd8e68f	0.105908506
66	0x3dd2f314	0.1030027
67	0x3d03833b	0.032107573
68	0x3b86a150	0.0041085854
69	0x3d4c8a46	0.049936555
70	0x3e1d17c1	0.15341093
71	0x3d6a6356	0.05722364
72	0x3e3a49cc	0.18192214
73	0x3e43b459	0.19111766
74	0x3e61a2e0	0.22034788
75	0x3d8c6b04	0.06856349
76	0x3e3cae88	0.18425953
77	0x3d248804	0.040168777
78	0x3df77114	0.12082115
79	0x3de6bf3f	0.11266946
80	0x3ca7ce50	0.02048412
81	0x3dee9d16	0.116510555
82	0x3e10f2df	0.14155148
83	0x3e0e4d01	0.13896562
84	0xbc010950	-0.007875755
85	0x3d213812	0.039360113
86	0xbdab761f	-0.08372139
87	0x3c517e38	0.012786441
88	0x3de2807f	0.11059665
89	0xbd1ca61e	-0.03824436
90	0x3e53736c	0.20649499
91	0x3e66ebab	0.22550838
92	0xbd43997d	-0.0477538
93	0x3e5bcc9c	0.21464771
94	0x3de13c9e	0.1099789
95	0xbe268f18	-0.16265523
96	0x3d07006d	0.03295939
97	0xbdd9b70f	-0.10630619
98	0xbcabd9ec	-0.020977937
99	0x3e3b8719	0.18313254
100	0xb9dab15c	-0.00041712343
101	0xbd9792b0	-0.07401025
102	0xbd75ccca	-0.060009755
103	0xbdbf4520	-0.093393564
104	0x3b5af33c	0.003340914
105	0x3bbec365	0.0058216327
106	0xbdc44951	-0.095842965
107	0xbe350297	-0.17676769
108	0x3ded9ded	0.116023876
109	0xbc31609d	-0.010826257
110	0xbd31c545	-0.04340102
111	0x3e314b7c	0.17313951
112	0xbe0be5f9	-0.13661946
113	0xbbcbec46	-0.0062232343
114	0x3d4ca318	0.049960226
115	0xbe19d14b	-0.15021245
116	0xbe5d55d7	-0.21614777
117	0xbd493735	-0.049124915
118	0x3cf9bdd2	0.030486021
119	0x3d43f569	0.047841463
120	0x3d8289e5	0.063739575
121	0x3ccfa2d6	0.0253462
122	0x3e03cf0c	0.12871951
123	0xba0127a8	-0.0004926869
124	0xbbd3d2da	-0.0064643444
125	0x3cb405af	0.021975366
126	0xbcd40673	-0.025881981
127	0xbdaeda1a	-0.08537693
128	0x3d48da9c	0.049036607
129	0x3da7f1d0	0.08200419
130	0x3d6fc677	0.05853888
131	0x3dc107b2	0.09425296
132	0xbc376c72	-0.011195289
133	0xbd7b0a61	-0.061289195
134	0xbd2e0a64	-0.042490378
135	0xbdbc2215	-0.09186188
136	0x3cf35e05	0.029707918
137	0xbc86a010	-0.016433746
138	0xbd2d4059	-0.042297695
139	0xbbc176e4	-0.0059040654
140	0x3da0c3e0	0.0784986
141	0xbdb9bfd1	-0.09069789
142	0x3d3737f8	0.04473111
143	0xbd344a08	-0.044015914
144	0x3c25c4f6	0.01011776
145	0x3e1020bc	0.14074987
146	0x3e2350d1	0.15948798
147	0xbd3256d1	-0.043539826
148	0xbd002101	-0.031281475
149	0x3c85cf5d	0.01633423
150	0x3de82d72	0.11336793
151	0xbc59ff4d	-0.013305497
152	0x3da33856	0.079697296
153	0xbe09a667	-0.13442384
154	0xbe062723	-0.13100867
155	0x3c80da10	0.01572898
156	0xbd8b96e8	-0.068158925
157	0xbce9fb04	-0.028562076
158	0xbddb681c	-0.10713217
159	0xbdd0f2e3	-0.10202577
160	0xbe0fb35c	-0.14033264
161	0xbdddd3d6	-0.1083142
162	0xbde32c7f	-0.11092471
163	0xbd244b87	-0.04011109
164	0xbd212c06	-0.039348625
165	0x3dd0e340	0.101995945
166	0xbb17ba9f	-0.0023152006
167	0xbdafc683	-0.08582785
168	0x3d1d465f	0.03839719
169	0xbd7c92a1	-0.061663274
170	0xbd0b78d6	-0.034050785
171	0xbd78f239	-0.060777877
172	0x3d9c6ba0	0.07637715
173	0xbcf265fa	-0.029589642
174	0xbdfc7d71	-0.123286135
175	0xbd8cc076	-0.068726465
176	0x3d9d90b5	0.07693616
177	0xbcab1315	-0.020883122
178	0xbe128395	-0.14308007
179	0x3bc00921	0.0058604633
180	0xbd3881ce	-0.045045666
181	0x3d8d4012	0.06896986
182	0x3d4c53d4	0.049884632
183	0x3d7f9e80	0.062407017
184	0xbe07ff21	-0.13280918
185	0x3b743867	0.0037265064
186	0xbca75867	-0.020427896
187	0x3daab05c	0.08334419
188	0x3cd5b813	0.02608875
189	0xbcfceebb	-0.030875554
190	0xbda9d226	-0.08292036
191	0xbe316020	-0.17321825
192	0xbd78b66c	-0.060720846
193	0xbe25cfee	-0.161926
194	0x3cf4375f	0.02981156
195	0xbe009099	-0.1255516
196	0xbdc6626f	-0.096867435
197	0x3c09e0f8	0.008415453
198	0x3e8b36fa	0.2719038
199	0x3e15fc10	0.14646935
200	0x3dd69e07	0.1047936
201	0x3e36e4a1	0.17860653
202	0x3e58007f	0.21093939
203	0x3e59430e	0.21216986
204	0x3e052bd2	0.13004997
205	0x3e7f040d	0.24903889
206	0x3e0df211	0.13861872
207	0x3ded22d7	0.11578911
208	0xbc5d594a	-0.013510058
209	0x3e18bf1e	0.14916655
210	0x3e2b0342	0.16700462
211	0x3e4c3108	0.19940579
212	0x3d643314	0.055712774
213	0x3e30b36f	0.17255948
214	0x3df99a6b	0.12187656
215	0x3da1bc7c	0.07897279
216	0x3c79c1bb	0.015243943
217	0x3e1c9ab0	0.15293384
218	0x3d71fa89	0.05907682
219	0x3da6940c	0.081337065
220	0xbd55ba99	-0.052179907
221	0x3d41b56d	0.04729216
222	0x3b51fe48	0.0032042433
223	0x3c9ea91c	0.019367747
224	0x3c9c7ebb	0.019103399
225	0x3e425f2b	0.18981616
226	0x3e1acd5a	0.15117398
227	0x3dba0e77	0.0908479
228	0x3d472424	0.04861845
229	0x3e15077f	0.14553641
230	0x3e0db93e	0.13840196
231	0x3e3fc740	0.18728352
232	0x3dfabac4	0.12242654
233	0x3e0d639a	0.13807526
234	0xbda45557	-0.0802409
235	0xbdea5f57	-0.11443966
236	0xbce797c3	-0.028270608
237	0x3dfef24f	0.124485604
238	0x3c987c29	0.018613892
239	0xbcc3d519	-0.023905324
240	0xbd74d1aa	-0.059770264
241	0xbba88c09	-0.0051436466
242	0xbe00eaaf	-0.12589525
243	0x3e5f6960	0.21817541
244	0x3d54f9b7	0.05199596
245	0x3d7e31bb	0.062059145
246	0x3e38d874	0.1805132
247	0x3d84ea1b	0.064899646
248	0x3d44e74c	0.048072144
249	0x3cd65ef5	0.026168326
250	0xbc56f01a	-0.013118768
251	0x3dd79144	0.10525754
252	0x3ddb06de	0.10694669
253	0xbd4435ec	-0.047902986
254	0x3d4f4476	0.0506024
255	0xbd23a442	-0.03995157

encoder.8.bias f4 [4]
0	0xbc234fb0	-0.009967729
1	0xb974b6e5	-0.00023337787
2	0xbd089780	-0.033347607
3	0xbdb05a57	-0.08610981

encoder.9.weight f4 [4]
0	0x3f82f34c	1.0230498
1	0x3f7ae816	0.98010385
2	0x3f8aa786	1.0832374
3	0x3f775894	0.96619534

encoder.9.bias f4 [4]
0	0x3e4eefa6	0.20208606
1	0x3e1db07e	0.15399358
2	0x3c8b17eb	0.016979178
3	0xbca7ee62	-0.020499412

encoder.9.running_mean f4 [4]
0	0xbee3c429	-0.44485596
1	0x3f3dc0f0	0.74122524
2	0x3f3448dd	0.7042368
3	0xbf09e9e8	-0.5387254

encoder.9.running_var f4 [4]
0	0x40c1a561	6.051438
1	0x3f5ec41f	0.8701801
2	0x40a01f2b	5.0038047
3	0x40578080	3.367218

encoder.12.weight f4 [2, 4, 3, 3]
0	0x3de486b1	0.11158503
1	0x3cba12bc	0.022714011
2	0xbcb3e011	-0.02195743
3	0x3c082700	0.00831008
4	0x3e192e8f	0.14959167
5	0x3e05f470	0.13081527
6	0x3e12cf41	0.14336874
7	0x3e1ff45f	0.15620564
8	0x3df29ba6	0.11846094
9	0x3d56baa8	0.052424103
10	0xbd920233	-0.07129326
11	0x3d432ca8	0.04765001
12	0xbe15c12f	-0.14624475
13	0xbea4aa35	-0.32161108
14	0xbdd56f17	-0.10421579
15	0x3d607598	0.054799646
16	0xbd9804ca	-0.074227884
17	0x3dc0257b	0.09382149
18	0x3d9b6ed6	0.075895
19	0xbe598cd3	-0.21245126
20	0x3e072010	0.13195825
21	0xbe38340f	-0.17988609
22	0xbf3d27ef	-0.7388906
23	0xbe4e6844	-0.20156962
24	0x3e043a0a	0.12912765
25	0xbded6136	-0.11590807
26	0x3de4ff68	0.111815274
27	0xbd50478d	-0.050849486
28	0x3e5a0887	0.21292315
29	0xbd83bed3	-0.06432881
30	0x3e29fef8	0.16601169
31	0x3ecf1ae7	0.40450212
32	0x3dd5f80c	0.10447702
33	0xbdd0b259	-0.10190267
34	0x3e373195	0.17890008
35	0xbd1d9ebc	-0.03848146
36	0x3e4a5068	0.19757235
37	0x3de88674	0.1135377
38	0x3cb3b260	0.021935642
39	0x3e915205	0.28382888
40	0x3ee517c7	0.44744703
41	0x3de121e3	0.109927915
42	0x3d6abdd0	0.057309926
43	0x3e71949f	0.2359185
44	0xbbc12aab	-0.005894979
45	0x3cdae341	0.026719691
46	0xbe1b4a68	-0.15165102
47	0x3df0e87d	0.117630936
48	0xbe44f39a	-0.19233552
49	0xbf226233	-0.6343109
50	0xbe5610cd	-0.20904846
51	0x3deda0c1	0.11602927
52	0xbe493a49	-0.1965114
53	0x3e69c967	0.22830735
54	0x3ccdfe2b	0.02514561
55	0xbbbb9717	-0.0057247984
56	0xbd0fb6a9	-0.035086308
57	0xbcf9ac49	-0.03047766
58	0x3e1a9d9b	0.15099184
59	0xbc2b2a49	-0.010447093
60	0xbcd15bd4	-0.025556482
61	0xbcc03493	-0.02346257
62	0xbdacedd4	-0.084437996
63	0x3bb40e46	0.0054948656
64	0xbe0caf2b	-0.13738696
65	0x3e241d2e	0.16026756
66	0x3d7888fe	0.06067752
67	0xbea8f22a	-0.32997257
68	0xbd9548b7	-0.0728926
69	0x3d9195d8	0.071086586
70	0xbd9b44cc	-0.07581481
71	0x3e17466d	0.14772959

encoder.12.bias f4 [2]
0	0x3dedbc33	0.11608162
1	0x3dc0a9cb	0.094073854

encoder.13.weight f4 [2]
0	0x3e7076f0	0.23482871
1	0x3e909466	0.2823822

encoder.13.bias f4 [2]
0	0x3fa56ecf	1.2924441
1	0x3f94017d	1.1562954

encoder.13.running_mean f4 [2]
0	0x3e15243d	0.14564605
1	0x3ec5bffb	0.38623032

encoder.13.running_var f4 [2]
0	0x3fdedab3	1.7410492
1	0x3ffdd49b	1.9830507

decoder.1.weight f4 [4, 2, 3, 3]
0	0x3d615235	0.05501004
1	0x3bb0e972	0.0053989226
2	0xbd1643a1	-0.03668559
3	0xbd8560af	-0.065125816
4	0x3f42123a	0.7580906
5	0x3db525c7	0.08845096
6	0xbc728de7	-0.01480434
7	0x3c9d1343	0.019174224
8	0xbc7e6999	-0.015528106
9	0xbdf4bc72	-0.119500056
10	0x3db57c78	0.08861631
11	0xbd0a6841	-0.03379083
12	0x3e1e14d7	0.15437637
13	0x3eb1ff86	0.3476526
14	0x3bbd43ba	0.005775896
15	0xbd46b99a	-0.048516847
16	0x3d83b0fe	0.06430243
17	0xbd5ee10b	-0.054413836
18	0x3e21f330	0.15815425
19	0xbe167845	-0.14694317
20	0x3ca6ecc0	0.020376563
21	0xbdd343f1	-0.10315693
22	0xbe51306a	-0.20428625
23	0xbd9da43b	-0.0769734
24	0xbc98cf8f	-0.01865366
25	0xbe89236e	-0.26784843
26	0xbe94b566	-0.29044646
27	0xbe65aad5	-0.22428448
28	0x3e3d6de3	0.1849895
29	0xbcf7e46e	-0.030260291
30	0x3e43247a	0.19056883
31	0x3f1c08a5	0.6095069
32	0x3e004798	0.12527311
33	0xbd0e2d57	-0.03471121
34	0x3eac3382	0.33633047
35	0x3e5b019a	0.2138733
36	0xbe22ced2	-0.15899208
37	0x3e04bf81	0.12963678
38	0xbd31eb68	-0.04343739
39	0x3e43bfe7	0.19116174
40	0x3e4684ff	0.19386671
41	0x3e2f3f74	0.17114049
42	0xbe2a4067	-0.1662613
43	0x3e90a6b0	0.28252172
44	0x3ce959d7	0.028485222
45	0x3e5b4d06	0.21416101
46	0xbe731422	-0.23738149
47	0x3d8a7268	0.067601025
48	0xbe7e5e5d	-0.24840684
49	0xbf0d9314	-0.5530255
50	0xbe89696d	-0.26838246
51	0x3e2acf7e	0.16680714
52	0xbec81068	-0.39075017
53	0xbd9df1da	-0.07712145
54	0x3d62b736	0.055350505
55	0xbde38b82	-0.111105934
56	0x3d542189	0.051789794
57	0xbde7c059	-0.11315984
58	0xbf6bae02	-0.9206239
59	0xbde755e6	-0.11295681
60	0x3d633118	0.05546674
61	0xbe0e4f39	-0.13897409
62	0x3dc536b3	0.09629574
63	0x3b9299bf	0.0044738944
64	0x3cd2c5ca	0.025729079
65	0xbd3bfe32	-0.045896716
66	0x3cb2bbd0	0.021818072
67	0xbe87de5e	-0.2653684
68	0x3d4bbb4d	0.04973917
69	0xbd19be3d	-0.03753494
70	0x3da15f1d	0.078794695
71	0xbd996a88	-0.07491022

decoder.1.bias f4 [4]
0	0xbd6985f0	-0.0570125
1	0xbd176b2a	-0.036967434
2	0xbe59aa97	-0.21256481
3	0x3e352e80	0.1769352

decoder.2.weight f4 [4]
0	0x3f7a6a30	0.9781828
1	0x3f751f80	0.9575119
2	0x3f751742	0.95738614
3	0x3f68468e	0.9073266

decoder.2.bias f4 [4]
0	0xbdd9bb10	-0.106313825
1	0x3ec954a8	0.393224
2	0x3e98ee61	0.2986937
3	0x3f20d4e8	0.6282487

decoder.2.running_mean f4 [4]
0	0x3fc0e374	1.5069413
1	0x3ed167c8	0.4089949
2	0xbf63c853	-0.88977545
3	0xbfcd66e1	-1.6047021

decoder.2.running_var f4 [4]
0	0x3d9619ec	0.07329163
1	0x3dcba4c8	0.09943539
2	0x3dc42372	0.09577073
3	0x3db6cfe3	0.0892637

decoder.5.weight f4 [8, 4, 3, 3]
0	0xbe58b95d	-0.2116446
1	0xbdba3418	-0.09091967
2	0x3d172406	0.03689959
3	0xbdb8fb1b	-0.090322696
4	0x3e81bae6	0.25337905
5	0x3dd7e610	0.10541928
6	0x3dd7c110	0.105348706
7	0xbd663f0f	-0.05621248
8	0xbc246e43	-0.010036054
9	0xbd16dc05	-0.03683092
10	0xbcd01f07	-0.02540542
11	0xbde88f95	-0.11355511
12	0x3e092d4c	0.13396186
13	0x3f0e97f9	0.5570064
14	0x3e3980f8	0.18115604
15	0xbe011e49	-0.12609209
16	0x3e59365c	0.21212143
17	0x3c04057a	0.008057946
18	0xbe1a928c	-0.15094966
19	0xbe25ebcd	-0.16203232
20	0x3c6c4258	0.014420114
21	0xbd7c6c22	-0.06162656
22	0xbdcb3552	-0.099222794
23	0xbe4b2fc8	-0.19842446
24	0xbda9ede1	-0.08297325
25	0x3d3751c8	0.044755727
26	0xbd840260	-0.064457655
27	0x3c3bcc1b	0.011462237
28	0x3dc3fa45	0.095692195
29	0xbde24c8e	-0.11049758
30	0x3dab9a41	0.08379031
31	0x3eb2448d	0.34817925
32	0x3e278146	0.16357908
33	0xbd11769a	-0.035513498
34	0x3de94f4b	0.11392077
35	0xbdde4afc	-0.10854146
36	0xbd2efca8	-0.04272142
37	0x3e5a1f2e	0.21300957
38	0xbe0c1dae	-0.13683197
39	0x3d80d578	0.06290716
40	0x3e599c0e	0.21250936
41	0x3dfc0925	0.12306432
42	0x3d05c59a	0.03265915
43	0x3de4df41	0.11175395
44	0x3e17ce55	0.14824803
45	0x3d239020	0.03993237
46	0xbe7d1fc4	-0.24719149
47	0x3b01bc87	0.001979621
48	0xbdf77f4c	-0.12084827
49	0xbd201db9	-0.039090846
50	0xbdaff73e	-0.085920796
51	0x3c00cdc7	0.007861561
52	0xbd3d82a2	-0.04626716
53	0xbde72288	-0.11285883
54	0xbdbf13d5	-0.093299545
55	0x3e60bcd6	0.21947035
56	0xbd9a17ec	-0.07524094
57	0x3df1d02c	0.11807284
58	0x3f0cba23	0.5497152
59	0x3e9ecb98	0.31014705
60	0x3dbd070d	0.092298605
61	0x3e63e29f	0.22254418
62	0xbe03a6ea	-0.12856641
63	0x3db4d763	0.08830144
64	0xbe3c824c	-0.1840908
65	0xbcfb7433	-0.030695057
66	0xbd629f48	-0.055327684
67	0x3defc41d	0.117073275
68	0xbdc99469	-0.0984276
69	0xbe3438a5	-0.17599733
70	0x3d26bdb9	0.040708277
71	0xbdbab443	-0.091164134
72	0x3e384598	0.17995298
73	0x3db81955	0.08989207
74	0x3de67db3	0.11254444
75	0xbd2626f3	-0.04056449
76	0x3e080d34	0.13286287
77	0xbc3312f7	-0.010929815
78	0xbdfaaec9	-0.12240369
79	0x3de0c0be	0.10974263
80	0xbe234e49	-0.15947832
81	0x3e35dbcb	0.17759626
82	0x3ec14e60	0.37755108
83	0x3dbaca3f	0.09120607
84	0x3d7b1168	0.061295897
85	0x3e1464f2	0.14491633
86	0x3cf043b6	0.029329162
87	0xbe1e294b	-0.1544544
88	0xbd6ddb1f	-0.0580703
89	0xbe6194c1	-0.22029401
90	0xbe03148b	-0.12800805
91	0xbe448cac	-0.19194287
92	0xbd7ef59c	-0.06224595
93	0xbdc2f461	-0.09519268
94	0x3d8e18ac	0.069382995
95	0x3d792887	0.060829666
96	0xbe16abab	-0.14713924
97	0xbd41730d	-0.04722886
98	0xbdd7de7f	-0.10540485
99	0xbb9a0b03	-0.0047010197
100	0x3912ecd1	0.00014011866
101	0x3d0972c1	0.033556703
102	0x3afbc00d	0.0019207016
103	0x3d988fac	0.07449278
104	0xbd56d66e	-0.05245059
105	0xbd9e1ffc	-0.07720944
106	0x3d8d6432	0.06903876
107	0xbe01d4ca	-0.12678829
108	0xbde59320	-0.112097025
109	0xbddf7861	-0.10911632
110	0x3d116ab1	0.03550214
111	0x3b468e70	0.0030297302
112	0xbe4b32f2	-0.19843653
113	0xbdf7ad97	-0.120936565
114	0x3b9f2606	0.0048568277
115	0x3d866c7f	0.06563663
116	0xbda98e92	-0.08279146
117	0x3cba2fff	0.022727964
118	0xbaef1e9c	-0.0018243375
119	0xbdc6e414	-0.09711471
120	0x3c862189	0.016373413
121	0x3d80ad4a	0.06283052
122	0x3d945df0	0.0724448
123	0xbe1d7532	-0.15376738
124	0xbd839541	-0.06424952
125	0xbd81517c	-0.0631437
126	0xbe12ca71	-0.14335038
127	0x3d71fab8	0.059076995
128	0xbdc71a69	-0.09721834
129	0x3db600f4	0.088869005
130	0x3ea901ca	0.33009177
131	0x3e1ea94d	0.1549427
132	0xbd20200d	-0.039093066
133	0x3cd2108f	0.025642661
134	0xbe25f772	-0.16207674
135	0x3c8fe71a	0.017566252
136	0x3da5bd28	0.08092719
137	0xbd369cbc	-0.044583067
138	0x3df9c593	0.121958874
139	0x3f15cae7	0.5851273
140	0x3e00ba43	0.12571053
141	0xbdcf7fcd	-0.10131798
142	0x3e89e4d0	0.26932383
143	0x3c41aa77	0.011820427
144	0xbe22a298	-0.15882337
145	0xbda28de3	-0.07937219
146	0xbe0e9353	-0.13923387
147	0x3da892f6	0.082311556
148	0xbcc1946e	-0.023630347
149	0xbe88e370	-0.2673602
150	0x3e04f547	0.12984191
151	0x3de948ab	0.113908134
152	0xbd8c1a6e	-0.068409786
153	0x3db0ffd0	0.08642542
154	0xbd2d1cdf	-0.04226386
155	0xbb896192	-0.0041925395
156	0xbdc015f6	-0.09379189
157	0x3c18c440	0.009324133
158	0x3cdaa584	0.026690252
159	0x3db783f3	0.08960714
160	0xbdea73ef	-0.11447894
161	0x3d9ef810	0.07762158
162	0xbe1e557e	-0.154623
163	0xbdad102e	-0.08450352
164	0x3da219c9	0.079150744
165	0xbdcf9b70	-0.10137069
166	0x3e50b393	0.20381002
167	0xbce78653	-0.028262293
168	0xbd8da7ac	-0.069167465
169	0x3d1fa4ac	0.038975403
170	0x3e89b1aa	0.2689336
171	0xbe457747	-0.19283782
172	0xbe5db249	-0.21650042
173	0xbd8b983e	-0.06816147
174	0xbd6fa941	-0.058511022
175	0xbc7a9ba8	-0.0152959
176	0xbe1f6cc7	-0.15568839
177	0x3df071d8	0.11740464
178	0xbe0cb9ef	-0.13742803
179	0xbe09dd11	-0.13463236
180	0x3d1ec00b	0.038757365
181	0xbc4a59f8	-0.012350552
182	0xbce47b06	-0.027890693
183	0x3e601ae3	0.21885256
184	0x3e585328	0.21125472
185	0x3da62370	0.08112228
186	0x3e118eec	0.14214677
187	0x3e0d4dd1	0.13799216
188	0x3e13ef94	0.1444686
189	0xbc10bd5a	-0.008834207
190	0x3dbacbf1	0.0912093
191	0xbbf6e187	-0.007534209
192	0x3cc6abb5	0.024251798
193	0x3d420d63	0.047376048
194	0xbc7e0c25	-0.015505825
195	0x3d1586c7	0.036505487
196	0x3da0fb58	0.0786044
197	0x3d97f09d	0.0741894
198	0xbd31ee56	-0.043440185
199	0x3d277fc7	0.040893342
200	0xbd018eb4	-0.031630233
201	0xbccbb1b6	-0.024865013
202	0xbd26ac75	-0.04069181
203	0xbdd9fffc	-0.10644528
204	0xbdf5c284	-0.119999915
205	0x3d27d6dc	0.04097639
206	0xbd34aabe	-0.044108145
207	0xbd85e3f7	-0.065376215
208	0xbe5364a4	-0.2064386
209	0xbe115bf9	-0.14195241
210	0x3d8b6afe	0.068075165
211	0xbd9edacc	-0.07756576
212	0xbe7deb68	-0.24796832
213	0xbc80f71b	-0.01574283
214	0xbe3f667b	-0.18691437
215	0xbdf3cdfa	-0.11904521
216	0x3d5cb045	0.05387904
217	0x3d4bb556	0.049733482
218	0x3d74e057	0.05978426
219	0x3e1ca5fb	0.15297692
220	0x3e33cc7b	0.17558472
221	0x3e81f345	0.25380912
222	0x3e10e84f	0.14151119
223	0xbce63d8f	-0.028105525
224	0xbdd133da	-0.10214968
225	0x3ccc03b0	0.024904102
226	0x3dabfd33	0.08397903
227	0xbe3ef277	-0.1864718
228	0xbde95cfe	-0.1139469
229	0x3c34b072	0.011028396
230	0xbddcea57	-0.10786884
231	0x3ce34213	0.027741468
232	0xbe61f32f	-0.22065423
233	0xbb617536	-0.0034402139
234	0xbccda7b8	-0.025104389
235	0x3e4337d6	0.19064268
236	0xbd9f381e	-0.077743754
237	0x3e1dc9b6	0.15408978
238	0x3e5f2023	0.21789603
239	0x3e317132	0.17328337
240	0xbd9dcc6d	-0.07705007
241	0xbc45861a	-0.012055898
242	0xbda8865f	-0.08228754
243	0xbe555920	-0.2083478
244	0xbe558dd1	-0.2085488
245	0xbdad8790	-0.08473122
246	0xbdfb789c	-0.12278864
247	0xbdf52e55	-0.11971728
248	0xbe782e8a	-0.24236503
249	0xbd0e6fbd	-0.03477453
250	0xbe5f4211	-0.21802546
251	0xbe285c23	-0.16441397
252	0xbd966c1f	-0.07344841
253	0x3e1cd416	0.1531528
254	0x3d57e9b5	0.052713115
255	0x3dc0874f	0.09400808

decoder.5.bias f4 [8]
0	0xbd74c567	-0.05975857
1	0x3e126288	0.14295399
2	0x3e200e28	0.156304
3	0x3ca6cb75	0.020360688
4	0x3da4c10e	0.08044635
5	0xbe208ed5	-0.15679486
6	0x3decbb21	0.115591295
7	0x3e206fd0	0.15667653

decoder.6.weight f4 [8]
0	0x3f83b30c	1.0289016
1	0x3f8ae593	1.085131
2	0x3f6e4d59	0.93086773
3	0x3f8269f4	1.0188584
4	0x3f758c7b	0.9591748
5	0x3f7ff37e	0.99980915
6	0x3f894ccd	1.0726563
7	0x3f69cc05	0.91326934

decoder.6.bias f4 [8]
0	0x3dde1406	0.10843663
1	0x3da02ce4	0.07821062
2	0xbe0a5c97	-0.13511883
3	0xbe2b6d97	-0.16741024
4	0xbaa7011a	-0.0012741417
5	0x3e148fa0	0.14507914
6	0x3b814db6	0.0039460314
7	0xbe19b234	-0.15009385

decoder.6.running_mean f4 [8]
0	0x3eecd775	0.4625813
1	0x3ec328b4	0.38116992
2	0x3e05a4a3	0.13051085
3	0x3f2407f7	0.64074653
4	0xbf12a3d7	-0.5728125
5	0xbf0b8683	-0.54502124
6	0xbf301425	-0.6878074
7	0xbe7df5e0	-0.24800825

decoder.6.running_var f4 [8]
0	0x3f4ffac7	0.8124203
1	0x3f7d8ff8	0.99047804
2	0x3f1a5cf2	0.60298073
3	0x3f9c35ef	1.2203959
4	0x3e9287f3	0.28619346
5	0x3fd02ea0	1.6264229
6	0x3fb47f09	1.4101268
7	0x3f436115	0.7632001

decoder.9.weight f4 [16, 8, 3, 3]
0	0xbd877603	-0.06614306
1	0xbc5c2e19	-0.013438725
2	0xbe204e0e	-0.15654776
3	0xbdaaa8ad	-0.083329536
4	0xbccd1ca0	-0.025038064
5	0xbdd8e8d2	-0.10591282
6	0x3d58268d	0.05277114
7	0xbd6e5359	-0.058184955
8	0x3d27a5e4	0.04092969
9	0xbd1360a2	-0.035980828
10	0x3d6c63a2	0.057712205
11	0x3d84df8e	0.06487952
12	0xbc4d1ecd	-0.0125195505
13	0x3e595f94	0.21227866
14	0xbd22c31c	-0.039736852
15	0xbdee0657	-0.11622303
16	0x3cc7f431	0.024408432
17	0xbc2a19b3	-0.010382104
18	0xbdd022a2	-0.10162856
19	0xbddc5320	-0.10758042
20	0xbd8a3a31	-0.067493804
21	0xbe3efcfd	-0.18651195
22	0x3c2d1904	0.010565046
23	0xbcdba28a	-0.026810903
24	0xbc3233f5	-0.010876645
25	0xbcf8f630	-0.030390829
26	0xbd2b601a	-0.041839696
27	0x3d02c91c	0.031930074
28	0x3dde664e	0.10859357
29	0x3c1b658d	0.009484661
30	0x3dbb02d4	0.09131399
31	0x3e26d29b	0.16291277
32	0x3cd89344	0.02643741
33	0xbce64a48	-0.028111592
34	0x3e2b63bc	0.16737264
35	0x3d399fba	0.045318343
36	0xbdb34a7c	-0.08754441
37	0xbdd3c515	-0.10340325
38	0xbe1bd15b	-0.15216582
39	0xbd5f384a	-0.05449704
40	0x3cedcdc5	0.029028783
41	0xbd25a23e	-0.04043793
42	0x3c9c5b57	0.019086523
43	0xbc7147eb	-0.014726619
44	0x3c876b9e	0.016530808
45	0xbe139249	-0.14411272
46	0xbc9ac24c	-0.018891476
47	0xbde11974	-0.10991183
48	0xbdfd9d64	-0.123835355
49	0xbe217541	-0.15767385
50	0xbd4c85a8	-0.049932152
51	0xbe274f50	-0.16338849
52	0x3bc516a3	0.0060146614
53	0x3ceca4e1	0.028887214
54	0x3da40004	0.080078155
55	0xbdd116ec	-0.1020945
56	0x39cdbea9	0.000392427
57	0x3bc68894	0.006058762
58	0xbe0739a6	-0.13205585
59	0x3d162dd7	0.03666481
60	0xbca6b8f9	-0.020351874
61	0x3c1aca2a	0.009447614
62	0xbe1f4c22	-0.15556386
63	0xbdc36843	-0.09541371
64	0xbdf61d2b	-0.12017282
65	0x3d350d3c	0.044202074
66	0xbc177942	-0.009245219
67	0xbe20c25b	-0.1569914
68	0xbe3c92a0	-0.18415308
69	0xbd818d56	-0.06325786
70	0x3d0a9015	0.033828814
71	0x3cbb9b2d	0.022901142
72	0xbd7f91de	-0.06239497
73	0x3e2b69bb	0.16739552
74	0xbdefffe1	-0.11718727
75	0x3cdf9397	0.027292056
76	0x3e8f22aa	0.27956134
77	0xbc21d37c	-0.009877082
78	0x3d933940	0.07188654
79	0x3c7b54ad	0.0153400125
80	0x3c2d8741	0.010591329
81	0x3d25b251	0.04045326
82	0xba8a6955	-0.0010559956
83	0xbd20a31a	-0.039218046
84	0xbda64663	-0.08118894
85	0x3d42865f	0.047491428
86	0x3cd7748d	0.026300693
87	0x3c06fc60	0.008238882
88	0xbdda8086	-0.10669045
89	0x3ca4538a	0.020059366
90	0x3db7e919	0.08980007
91	0x3d74b0f1	0.059739057
92	0x3d64787a	0.055778958
93	0x3d36af34	0.04460068
94	0x3e4286e3	0.18996768
95	0xbd7d6d3f	-0.061871763
96	0x3c94069a	0.018069554
97	0xbdf659c1	-0.12028838
98	0x3cd9e4c2	0.026598338
99	0xbbeb3260	-0.007177636
100	0x3d39927a	0.045305707
101	0xbd35d628	-0.04439369
102	0xbd6da1c5	-0.058015604
103	0xbcc52b06	-0.024068367
104	0xbd2a9103	-0.0416422
105	0xbbc086c2	-0.0058754394
106	0x3d7b7bcc	0.06139736
107	0x3cb604f5	0.02221916
108	0xbd0c0392	-0.034183092
109	0x3d6d771b	0.057974916
110	0xbbbea77f	-0.005818307
111	0x3dbb85e0	0.09156394
112	0xbd611738	-0.054953784
113	0xbd32c363	-0.043643367
114	0x3da757ef	0.08171069
115	0x3d23d29b	0.03999577
116	0xbd858b4d	-0.0652071
117	0xbdac006c	-0.08398518
118	0xbde6b6b1	-0.11265314
119	0x3c89aa16	0.016804736
120	0x3d2aa71a	0.041663267
121	0x3d132920	0.03592789
122	0xbe279037	-0.16363607
123	0xbe21a065	-0.15783842
124	0xbd8049e0	-0.062640905
125	0xbe2e9f48	-0.17052948
126	0x3cea7fed	0.028625453
127	0xbd1ead8e	-0.038739733
128	0x3c9a18a9	0.018810587
129	0xbcbc5109	-0.02298786
130	0x3d213c61	0.039364222
131	0xbcdcdb0e	-0.026959922
132	0xbd7a578c	-0.061118647
133	0xbbb466ea	-0.0055054324
134	0x3ba1c86b	0.0049372218
135	0x3b1b065f	0.002365492
136	0xbd718939	-0.058968756
137	0xbd405dba	-0.046964385
138	0x3da12733	0.07868805
139	0x3e213ac1	0.15745069
140	0x3df4da5b	0.119557105
141	0xbcb38a64	-0.021916576
142	0x3d946802	0.072464004
143	0x3dc35c8c	0.09539136
144	0xbd0a58f1	-0.033776227
145	0xbdce62f7	-0.1007747
146	0xbdc6bd30	-0.097040534
147	0xbd1880c9	-0.037232194
148	0x3da91e73	0.08257761
149	0xbe1307bc	-0.14358419
150	0xbdfe5f57	-0.124205284
151	0xbdf58efe	-0.11990164
152	0xbe18006e	-0.14843914
153	0x3ce7d78a	0.02830102
154	0x3aa75c25	0.001276855
155	0xbdd7cb7d	-0.10536859
156	0xbcfe7b00	-0.03106451
157	0x3e2cb065	0.16864164
158	0x3e0336a1	0.12813808
159	0x3c3245e8	0.010880925
160	0x3d2768ec	0.040871546
161	0xbc2a4024	-0.010391269
162	0xbdb89584	-0.09012893
163	0xbc4f983f	-0.012670576
164	0x3d6d77f8	0.05797574
165	0xbdc1fc65	-0.094719686
166	0x3c2cdc6d	0.0105506005
167	0xbcb6a9c6	-0.022297751
168	0x3bcd35ae	0.0062625026
169	0xbd153aba	-0.03643296
170	0xbddcc179	-0.107790895
171	0xbdc8b53b	-0.09800192
172	0x3bd1329f	0.0063842083
173	0xbdb320cd	-0.08746491
174	0xbe042b1b	-0.12907068
175	0xbd92a4d2	-0.07160343
176	0xbd99bbdc	-0.075065345
177	0x3d51eb68	0.05124989
178	0xbdab3ae4	-0.08360842
179	0xbe31133a	-0.1729249
180	0xbbe0d06e	-0.0068607843
181	0xbd15e82d	-0.036598373
182	0xbd203a8e	-0.039118342
183	0x3cd23ce4	0.0256638
184	0x3d7b720e	0.061388068
185	0x3dc53e2a	0.096309975
186	0xbda8ed5d	-0.082483985
187	0x3d45b4a5	0.04826798
188	0x3e02dff9	0.12780751
189	0xbdd87322	-0.10568835
190	0xbb070f22	-0.0020608385
191	0xbddafa0b	-0.10692223
192	0x3d396116	0.045258604
193	0x3d819a8f	0.06328308
194	0x3d24cb26	0.0402328
195	0xbe11fee9	-0.14257397
196	0x3cde79b9	0.027157651
197	0xbdc1e9ff	-0.09468459
198	0xbd39aabb	-0.045328837
199	0x3e260cf9	0.16215886
200	0x3e0392d7	0.12848984
201	0x3d11afca	0.035568036
202	0x3cd172ef	0.0255675
203	0x3e2816b1	0.16414906
204	0x3be29b24	0.006915467
205	0x3d41e5ff	0.047338482
206	0xbd8de485	-0.06928352
207	0x3c8f6721	0.01750523
208	0xbc3de57f	-0.011590361
209	0xbd803f30	-0.06262052
210	0x3d28fc46	0.04125621
211	0xbd879057	-0.066193275
212	0x3dd049e0	0.101703405
213	0x3db2963d	0.08720062
214	0x3dbd5705	0.09245113
215	0xbd7c3f41	-0.06158376
216	0xbdf19f0d	-0.11797915
217	0xbc601cee	-0.013678772
218	0xbc713e97	-0.014724395
219	0x3ca8cbaf	0.020604936
220	0x3db59389	0.08866031
221	0x3e81969f	0.25310227
222	0x3bdbdfae	0.0067100143
223	0x3e65b47b	0.22432129
224	0x3e42de39	0.19030084
225	0x3c935479	0.017984616
226	0xbd472a17	-0.048624124
227	0xbd38c052	-0.045105286
228	0xbd147e8e	-0.036253504
229	0x3d9e09c6	0.07716708
230	0x3d92c786	0.07166962
231	0x3d8850e5	0.066560544
232	0xbda243b8	-0.079230726
233	0x3d573939	0.052544806
234	0x3ddd95f7	0.10819619
235	0x3dbc4817	0.091934375
236	0xbba9ccc0	-0.005181879
237	0xbcefa6f7	-0.02925442
238	0x3e0b615d	0.1361136
239	0x3d5229f3	0.051309537
240	0x3e062795	0.13101037
241	0x3d314d73	0.043286752
242	0x3ddb1d09	0.106988974
243	0xbde76711	-0.11298955
244	0xbd035e29	-0.03207222
245	0xbd1934f9	-0.037404034
246	0x3c2d28bc	0.010568794
247	0xbde44bec	-0.111472934
248	0xbddd05d8	-0.1079213
249	0xbddb781a	-0.10716267
250	0x3bd8a4f3	0.0066114604
251	0x3c029f89	0.007972606
252	0xbc2451ef	-0.0100293
253	0xbdbb9040	-0.09158373
254	0xbcc5e223	-0.024155682
255	0x3db25e6e	0.08709417

decoder.9.bias f4 [16]
0	0xbdd38a96	-0.103291675
1	0xbdc8ab12	-0.09798254
2	0x3d90343c	0.07041213
3	0x3cb05f56	0.021529835
4	0x3dd3c83d	0.10340927
5	0x3c87bbc1	0.01656902
6	0xbdb9c475	-0.09070674
7	0xbc0ffca4	-0.008788262
8	0xbd9a7ea0	-0.07543683
9	0x3d7c181b	0.061546426
10	0x3da47d23	0.080316804
11	0xbcc0de9a	-0.023543645
12	0x3c469a97	0.012121818
13	0x3dcfc9f3	0.10145941
14	0xbda99de4	-0.08282068
15	0x3dbbc7f2	0.09168996

decoder.10.weight f4 [16]
0	0x3f89aef6	1.0756519
1	0x3f76287d	0.9615553
2	0x3f766c0a	0.96258605
3	0x3f7f900e	0.99829185
4	0x3f87770b	1.0583204
5	0x3f84ef96	1.0385616
6	0x3f7f5c21	0.9974995
7	0x3f7965b2	0.974208
8	0x3f757037	0.9587435
9	0x3f83940e	1.0279558
10	0x3f8945b1	1.0724393
11	0x3f8fad57	1.1224774
12	0x3f79d983	0.9759752
13	0x3f81fdeb	1.0155615
14	0x3f7d71b2	0.9900161
15	0x3f74fc95	0.9569791

decoder.10.bias f4 [16]
0	0xbe5e1051	-0.21685912
1	0xbe0e8f90	-0.13921952
2	0x3d52417e	0.05133199
3	0xbe0d1f5f	-0.13781498
4	0x3cc1e440	0.023668408
5	0xbc440488	-0.011963971
6	0xbe0efb04	-0.13962942
7	0xbdd00d3d	-0.10158775
8	0xbdaa32b8	-0.08310455
9	0x3b117679	0.002219586
10	0xbe115418	-0.14192235
11	0x3dbcfe42	0.09228183
12	0xbe1eaf39	-0.1549653
13	0xbea6f2e9	-0.326072
14	0xbdc15fef	-0.09442126
15	0xbe228cae	-0.15873978

decoder.10.running_mean f4 [16]
0	0xbf76a3b8	-0.96343565
1	0xbd916e51	-0.07101119
2	0xbe963292	-0.29335457
3	0x3f1cb16c	0.61208224
4	0x3e061afc	0.13096231
5	0xbd39abe9	-0.045329962
6	0x3e8cb71e	0.27483457
7	0xbefccccf	-0.49375007
8	0xbe75aed2	-0.2399247
9	0x3ef88d1c	0.48545158
10	0xbe4e79aa	-0.20163599
11	0xbd90e71e	-0.07075332
12	0x3cf04101	0.029327871
13	0x3d375b47	0.044764783
14	0x3f2d2a4f	0.6764268
15	0x3efce597	0.49393913

decoder.10.running_var f4 [16]
0	0x3fdaf531	1.7106076
1	0x3de48deb	0.11159881
2	0x3f4e2e14	0.8053906
3	0x3f66054d	0.8985184
4	0x3f89d0f4	1.0766892
5	0x3fb9a0d6	1.4502208
6	0x3f3984d8	0.7246833
7	0x3f52a14c	0.8227737
8	0x3eeb73db	0.45986828
9	0x3f9cfe1c	1.2265048
10	0x3f81d9b2	1.014456
11	0x3f3ee6eb	0.745711
12	0x3e5e5f16	0.2171596
13	0x3e804da9	0.2505925
14	0x3f6bb918	0.92079306
15	0x3f0d2f67	0.55150455
