Models/1st Normal Data/optical_wghts.pth (torch_old, 24148 bytes, 44 tensors)

encoder.0.weight f4 [16, 2, 3, 3]
00000000: 1d7f 43be 2f9f 093e 30d7 873b 6ecd 8b3d
00000010: 79c8 14be 9e7d a83d c0de 2dbe b7e8 0c3d
00000020: 7196 843c 316a 12bd c8a1 613d 5f7b 0ebe
00000030: 4017 eabd af4f 54be d71d 25bc aa4c 91bd
00000040: 5298 c53d cdcc 3cbe 6fc1 59be 02a5 c43d
00000050: af9b 13bd 2e47 05be 3ddc 84be 69cd 42be
00000060: 1d22 be3c 3fe9 41be 72bd a9bc f98c 003e
00000070: 568a 4e3e 4af2 2dbe daa2 f23c eca9 603e
00000080: 7383 243c 678c 98bd 11a4 30be c795 423d
00000090: 3c20 80be 835d 133e fef5 8b3d eccc 003e
000000a0: 2920 95bc 19e2 70be 5695 52be 5590 babd
000000b0: 20ec 123c 9e7b f73d 11ce e53c f7dc 013e
000000c0: 3b24 203e ee80 a63d e928 03be 6a6c 163e
000000d0: d90f 21be c3e6 893e bdea 0d3e 4d5c 1bbc
000000e0: b83f 123e b9b7 f1bd 9dfb 4b3e 4ede 223e
000000f0: 5458 5c3e f652 fa3c 7feb 213e 6115 d43d
00000100: d502 463e 10ce 263d f846 61be d7ee 43bd
00000110: 30e5 b73d 02ec 0e3d f4a8 c9bd 37af 5cbd
00000120: 7d02 27be 6fa6 fa3c 2325 2cbe 8c53 a73b
00000130: 4626 09be 504b 4c3c 3637 9fbd 0e1e 703e
00000140: a4a4 ce3d f1db 8d3c 0083 7cbe db60 04bd
00000150: 7da0 b43d 0295 283e cb8a 8bbe 8f5b e43c
00000160: f5c2 343b 4718 1dbe 4e3a 593e 959f d23c
00000170: 15a4 153e 79bf 3a3e 712d 53bd bf5a 253e
00000180: 3e6f 8a3d 0735 903e 2f31 09be 9123 4bbd
00000190: 52a2 813d 29bf 1dbe e861 3a3e 5ff9 63bd
000001a0: d5e7 563e b835 71be 0e47 f43b 37e3 52be
000001b0: da6a 423e 4428 89bd 9676 9cbc c1ae e4bd
000001c0: f7b0 b53d c85f cb3d 16f6 21bd a462 3bbe
000001d0: f418 5e3e 3b55 55bd 6597 05be ab01 3dbe
000001e0: ca38 823e c331 16be bfb0 10be dad0 7b3b
000001f0: 9549 a33e e73a cd3d 79b8 b73d cd4f 66bd
00000200: 1f27 3d3d b61c 5f3d 3313 b4bd 9fd2 a53b
00000210: e433 eabd 3ec7 ea3d d5be 6c3d 3a74 6b3d
00000220: 9694 263e e872 093e e0b6 03be 0332 83bd
00000230: 04a9 5a3e 42a2 04bb b475 283e a73e 713e
00000240: f60d 2fbd 0b91 1e3e 0047 833d 1224 ca3d
00000250: ee21 973e 7e88 5abd 5aa5 a13d d88b 3d3e
00000260: b6d2 c0bd 79c8 ffbd 9ef1 203e d183 b2bd
00000270: 25fc ccbc 783e eebd aa08 503e 7eed 6c3e
00000280: 4c72 74be 9433 c9bd bc99 753d 83f4 c3bd
00000290: c433 1abe d960 353e 23c3 c1bd dd70 2abe
000002a0: 4ddf 773e 840f 7fbd 88a3 363d 96da 23be
000002b0: a9e7 d4bd edcb 863e 0ead e4bd 1063 90bd
000002c0: 2b5c 513e a8c1 433e 56d9 bebd bc4f 32bd
000002d0: 29df 223e 7026 e53c e2ed 68bd 59e1 4dbe
000002e0: bb9b 53bc 3bd2 ff3d 9114 17bc 401c d2bd
000002f0: 445e 8c3c f4a1 b7bc 6fa5 2ebd a5dd 513e
00000300: ca24 a33d a768 8e3e 936d 403d e1d5 a4bd
00000310: cdec 923e df99 d0bc 7898 60be bcb9 59be
00000320: 7bb4 de3d 9ce0 2bbe 01e7 b9bd 38c1 953d
00000330: 7b8d e43d db4b 47be a476 84be ad1e 99bd
00000340: 5667 20be 35fd e73d f811 113e 79ed b0bd
00000350: 2615 383e 551f c73d 31b4 bcbc c083 2fbe
00000360: c02c 9fbc 6331 003e 2683 a73d 4341 debd
00000370: 3a0f 553e f874 123e 3fa9 703e cbc9 043e
00000380: 1286 dfbd 2534 e1bd 58a6 1b3e 9c61 e13d
00000390: dda2 303e 73cf f53d 663c 013e 8d6b 553c
000003a0: b82e 1dbe 34e7 183e 89b9 c83d be3b dd3d
000003b0: 632d 81bd cb6a 313e 9ace e63d 1913 2cbd
000003c0: 7b5e bfbc 566b 71bd 7b1e 943d b03e bb3d
000003d0: d5ff 2c3e 0555 0fbd f3cc ce3d 146b 0f3e
000003e0: 8e38 513e 93c4 753e f920 0dbe 62de 1cbd
000003f0: cab0 213d 1690 37bd 77e5 7d3e 4d27 a23d
-0.19091459 0.1343963 0.0041455254 0.06826292 -0.14529599 0.082270846 -0.16979504 0.03440162
0.016185017 -0.035745803 0.055085927 -0.1391425 -0.11430216 -0.20733522 -0.010077915 -0.07094701
0.096481934 -0.184375 -0.21265195 0.09601785 -0.036037143 -0.13015434 -0.25949278 -0.1902367
0.023209626 -0.18936633 -0.020720217 0.12553777 0.20169958 -0.16986957 0.02961867 0.2193982
0.010041106 -0.074486546 -0.17250086 0.04750612 -0.25024593 0.1439114 0.06834029 0.12578171
-0.018203812 -0.2352375 -0.2056478 -0.091095604 0.008967429 0.12084125 0.028052362 0.12681948
0.15638821 0.0813006 -0.12808575 0.14689794 -0.15728702 0.2693387 0.13859077 -0.009482455
0.1428212 -0.118026204 0.19920202 0.15905115 0.2151807 0.030557137 0.15812491 0.1035564
0.19337018 0.04072386 -0.21999729 -0.047835197 0.08979261 0.034893043 -0.098466784 -0.053878035
-0.16309543 0.03059694 -0.16811042 0.005106395 -0.13393506 0.012469128 -0.077742025 0.23448965
0.100899965 0.01731679 -0.24659348 -0.03231893 0.08819673 0.16463092 -0.27254328 0.02787569
0.0027582024 -0.15341292 0.21213648 0.02571086 0.14613374 0.18237104 -0.05155701 0.16147898
0.06759499 0.28165457 -0.13397668 -0.049594466 0.06329788 -0.15404953 0.18201411 -0.05565774
0.20986874 -0.23555648 0.0074547594 -0.20594488 0.18986073 -0.06697133 -0.019099515 -0.11166144
0.08871644 0.09930378 -0.039541326 -0.18299347 0.21689206 -0.052083235 -0.13046034 -0.18457668
0.25433952 -0.1466742 -0.14129923 0.0038424046 0.31892076 0.10021 0.08970732 -0.056228448
0.046179887 0.05447074 -0.087927245 0.0050605084 -0.114356786 0.11463784 0.05779918 0.05748389
0.16267619 0.1342274 -0.1286273 -0.06406023 0.21353537 -0.0020238315 0.1645115 0.23559056
-0.042737924 0.15485017 0.064100266 0.09870161 0.29518074 -0.053352825 0.078928664 0.18510377
-0.0941519 -0.12489409 0.1571717 -0.08716548 -0.025022576 -0.11633009 0.20315805 0.23137471
-0.23871726 -0.09824291 0.059961066 -0.09568121 -0.1505881 0.17712726 -0.094610475 -0.16644616
0.24206276 -0.062270656 0.04458955 -0.16001353 -0.10395748 0.26327458 -0.1116582 -0.07050145
0.20445316 0.19116843 -0.09318797 -0.043533072 0.15905441 0.02797243 -0.056867488 -0.20105495
-0.012915547 0.1249127 -0.009221212 -0.102592945 0.017134793 -0.022416092 -0.04263824 0.20494707
0.07966001 0.27814218 0.046979498 -0.08048607 0.2869629 -0.025463996 -0.21933162 -0.21262258
0.10874268 -0.167849 -0.090772636 0.07312244 0.11159798 -0.1946253 -0.25871766 -0.07476554
-0.1566442 0.11327592 0.14167011 -0.08639044 0.17976817 0.09722773 -0.02303514 -0.17140102
-0.019430518 0.1251884 0.081793115 -0.108522914 0.2080659 0.14302433 0.23502062 0.12967603
-0.10914244 -0.10996274 0.15200174 0.11004946 0.17249627 0.120024584 0.12620696 0.01302613
-0.15349853 0.14931947 0.09801013 0.108024105 -0.06307485 0.17325895 0.11269875 -0.0420104
-0.023360481 -0.058940254 0.07232376 0.09142816 0.16894467 -0.03499319 0.10097685 0.14005691
0.2043173 0.24000768 -0.1378211 -0.03829802 0.03947524 -0.044815145 0.24794565 0.07917652

encoder.0.bias f4 [16]
00000000: 6447 a03d 16c0 2c3e 931a 5ebd 1dd0 35be
00000010: 3a66 a0bd bf3b c43d 2b5c b43d f905 47be
00000020: 94b0 15be d2a0 483e 74b2 ddbd a957 1f3e
00000030: fa44 b73c d2ea 16be ba71 5ebd 688a 45be
0.07826117 0.1687015 -0.054224562 -0.1775517 -0.07831998 0.09581708 0.08806642 -0.19435872
-0.1461814 0.19592598 -0.10825053 0.15560783 0.022371758 -0.14738014 -0.054307677 -0.19291079

encoder.1.weight f4 [16]
00000000: 8c7f 813f 67b9 813f 67f7 7b3f f957 803f
00000010: 10d0 793f 72db 813f 9efb 833f e554 7c3f
00000020: 781c 803f d007 793f a69d 7e3f 6516 823f
00000030: 1521 7e3f 007e 7c3f 4ae7 813f 09ae 7f3f
1.0117049 1.0134705 0.9842438 1.0026847 0.97583103 1.0145094 1.0311162 0.9856704
1.0008688 0.97277546 0.994593 1.0163084 0.9926923 0.9862976 1.0148709 0.9987493

encoder.1.bias f4 [16]
00000000: c88e f43c b395 913d d516 ca3b e8a5 1a3c
00000010: a7eb 4bbc 385d 7aba cee8 583d 89d8 7a3c
00000020: 5a9c 103d a622 c4bc 2fc6 91bc c1d5 bb3c
00000030: 3c20 abbc 607b 363c 74fb 1d3d 7f4b 323d
0.02985324 0.07108631 0.0061672726 0.009438969 -0.012446321 -0.0009550634 0.052956395 0.015310415
0.03530536 -0.023942303 -0.017794697 0.022929074 -0.020889394 0.011137813 0.038569883 0.04352903

encoder.1.running_mean f4 [16]
00000000: 22fc 913d 5186 993e 78f3 0e3d 4b7a 97be
00000010: 11ee 9cbd 786c fcbc 9cc7 8a3d b045 32be
00000020: b6df 75be b446 533e 2a76 8bbd 8d62 893e
00000030: de9d 28bd 7e65 27be 51d3 11be 2290 3ebe
0.07128169 0.29985288 0.03490016 -0.2958549 -0.07662595 -0.03081344 0.06776354 -0.17409396
-0.2401112 0.2063244 -0.068096474 0.26833 -0.04116618 -0.1634731 -0.14240767 -0.1860967

encoder.1.running_var f4 [16]
00000000: f30c 9f40 7588 1341 907f e740 fe14 0941
00000010: 145d 1440 786a 0c41 a376 ce3e 4694 f440
00000020: 2e16 9e40 424f 073e fe66 d640 75d0 eb40
00000030: 4eaa 1141 e6b6 0441 daa7 1841 4d98 ff40
4.9703307 9.220815 7.2343216 8.567625 2.318181 8.775993 0.40324888 7.6431
4.9402075 0.13213828 6.7000723 7.3691964 9.104078 8.294653 9.540979 7.9873414

encoder.4.weight f4 [8, 16, 3, 3]
00000000: adbf bfbd c5d7 9fbd 856c 12bb a5fc a5bc
00000010: 0b21 3ebd c55e 1cbd 649a 41bb 4b15 6ebc
00000020: 9aaf d0bc d770 983c 633e e6bc 28bc 2cbc
00000030: 014f a53d 9681 a23d 8f59 913d c4f3 883d
00000040: 0c7c 573b 9c29 7bbd 4faa 763c e1d7 85bd
00000050: d2a8 843d a86d 1c3d a6c6 3b3d bbfb dfba
00000060: 5ba7 333d 0272 613d 7636 94bd b2f6 b53d
00000070: 7f7d e33d 585e a03d b7ab cc3d b836 853d
00000080: 4f01 243d 8eb4 203d 2ac5 9cbc 8136 cc3c
00000090: 4205 0e3d 121e f53c bdef 09bd 4784 ac3c
000000a0: f5d3 c6bd 3384 b1bd a1d7 87bd ac2c 9ebd
000000b0: b521 85bd 4b98 a3bc a045 0c3d e5aa 33bd
000000c0: e5c2 babc 356d 083c 0d48 8abd f335 56bb
000000d0: a826 5cbc 4fd8 253d 6a92 b7bd 223d 5c3d
000000e0: 9645 98bd d4da f9ba 7345 74bd 8a8b 233d
000000f0: 66d9 a1bd 6706 7f3d 7f8a b2bd 9a85 b83c
00000100: 3117 8e3d d617 963d 6a32 7f3d 6ba0 093c
00000110: b065 85bd 345e 133d ace2 ac3d 2720 17bc
00000120: 4af7 1b3d b63d b03b b823 1fbd e86b 85bd
00000130: f849 d1bb efde 553d fde4 7b3d 5fdc 9d3d
00000140: c01c 0c3b 29f3 89bd 4293 5ebd 5fc3 063d
00000150: c35b 32bc d2af 46bd 1638 a53c 7cbf 97bc
00000160: de2c 53bd 8b1f 43bc b87d dd3c d695 0abd
00000170: e579 113c d832 4f3d 3fda 4fbc c24a 3ebc
00000180: 79f2 a33d c90c 823d 5455 bf3c 7b6a bb3d
00000190: cc23 1a3d 3f27 2d3d 1882 993d b366 133c
000001a0: bf4a 98bc 380d 9c3d c3dd 303d 2bf7 d03d
000001b0: 1e1f 3b3d 7d07 513d d028 863d 69a3 3e3b
000001c0: 6785 583d 3ee8 9f3d 187d 65bd 9b6c 913d
000001d0: 143c dc3d 5c6c e13b f9ff 8e3c 0d82 0abd
000001e0: 1669 4b3d 2787 d8bc d350 32bd 3318 863d
000001f0: 304a 7fbd 3bda 53bd 92c0 163d b22e ed3c
00000200: cae5 7c3c 9275 35bd 2436 313d 0a56 45bb
00000210: 3288 2f3d 45d3 3fbd 91bb 703d d96c 763d
00000220: c2a7 9e3d 8656 edbb 1615 a83c b794 8e3d
00000230: 4274 c13d 6810 98bc 6ec0 fa3b 5af8 db3d
00000240: 4c05 62bd a99b 743d 9107 f43c 73a7 053c
00000250: 6b0a 0f3d 17da a8bc dcaf 20bd 2d16 993d
00000260: a40a 6d3d d504 03bc 31f6 f23d de69 b4bc
00000270: 6019 af3d 27c0 b03d b1ce 7d3d 5ad6 023e
00000280: a240 a03d 68d7 b23d e28b 093d 686b 8b3d
00000290: 86b0 7d3d de72 e23d 2e80 563d 1034 03bd
000002a0: 67a4 593d 13e7 003d 2633 d1bc 4525 19bd
000002b0: d61b e73c eac6 003c 4adb a4bc 0d5e 14bd
000002c0: bcb5 8dbd 39d1 0bbd 290c 583c 3996 a5bd
000002d0: e4f7 c23d 0904 a3bc 4d93 a03d 97fe 9ebc
000002e0: e4d4 503c 859e 593d 5eea 0cbd 1ad6 aa3c
000002f0: 4749 3fbd a433 5dbd 3a90 a7bd 0417 ccbc
00000300: f98c f7bc 86f0 2bbd f460 833b 9608 5ebb
00000310: d8ed b3bd 3bca 103d 41bc ccbd cbac ccbd
00000320: e600 f6bd bb40 afbc 826b 92bd 1a74 49b9
00000330: 193b 84bd 91f5 d1bc d3fe 7abc e9d8 cbbc
00000340: e9b2 563d 39e4 213d 3c51 393d 849e abbd
00000350: 0672 70bc 3c6a 2e3d ac35 b03b 95cb d33b
00000360: 5661 34bd f76e 84bd ba6f b1bd 841e 89bd
00000370: 8c9e 89bd a381 b1bd 52fb 81ba f200 fabd
00000380: 2c95 96bd 16f0 c23a b0e9 28bd 3beb 06bc
00000390: f690 32bd a113 e83c 8489 bdbc caa8 413d
000003a0: bbd3 c33c 1aae 2bbd 93db 613d 09c0 acbd
000003b0: f7f8 b3bc 23bc 07bc de10 553d 5031 64bb
000003c0: 6e42 1b3c 7c64 873c 29de ebbc dd98 be3c
000003d0: e15d 413d d803 cf3d 2b3b 233d 17f8 3abc
000003e0: 9014 0a3e 4cde ff3d e118 d93d ffc2 e83d
000003f0: 3bba 73bc 281a 8c3d f69b 9b3c 9d22 83bc
-0.09362731 -0.07804827 -0.0022342515 -0.020262072 -0.04641823 -0.038176317 -0.0029541487 -0.014531444
-0.025474358 0.018608494 -0.02810592 -0.010542907 0.080717094 0.07934873 0.0709716 0.066871196
0.0032880334 -0.06131898 0.015055253 -0.06535316 0.064775124 0.038190514 0.045843743 -0.0017088571
0.043860774 0.055040367 -0.0723695 0.08884944 0.11107921 0.07830495 0.099936895 0.065045774
0.04004031 0.03923469 -0.019136984 0.024928333 0.034672983 0.029921565 -0.033675898 0.021059169
-0.09708396 -0.08667793 -0.06632925 -0.07723364 -0.0650057 -0.01997008 0.034246087 -0.04386415
-0.022798011 0.008326818 -0.06752024 -0.0032685965 -0.013436951 0.04048949 -0.08963473 0.05376924
-0.074351475 -0.0019062408 -0.059636544 0.039927997 -0.079027936 0.062261965 -0.08717822 0.022524644
0.06938017 0.07328765 0.062303938 0.008400063 -0.06513536 0.03597851 0.08441672 -0.009223974
0.03807763 0.0053784503 -0.038852423 -0.06514722 -0.0063869916 0.05221456 0.061497677 0.07708048
0.002137944 -0.06735832 -0.054339655 0.032901164 -0.0108861355 -0.04850752 0.020168345 -0.018523924
-0.05155646 -0.011909376 0.027037486 -0.0338343 0.00887916 0.050585598 -0.012686311 -0.011614503
0.08005232 0.06350095 0.023356117 0.09151169 0.037631795 0.042273756 0.074955165 0.008996653
-0.01859033 0.07619709 0.04318024 0.102033935 0.045683973 0.051032532 0.06550753 0.00290891
0.052861597 0.078079686 -0.0560275 0.07100793 0.107536465 0.0068793725 0.017456042 -0.033815432
0.049660765 -0.026431633 -0.04353411 0.065475844 -0.06232661 -0.051721793 0.036804743 0.02895293
0.015435645 -0.044301577 0.043264523 -0.0030111098 0.042854495 -0.04683234 0.058772627 0.0601624
0.07746841 -0.0072429804 0.020517867 0.06961959 0.094460025 -0.01856251 0.007652334 0.10740729
-0.055180833 0.05971876 0.029788764 0.008157599 0.034922045 -0.020611806 -0.039230213 0.07474933
0.057871476 -0.0079967575 0.118633635 -0.022023138 0.08549762 0.086304 0.061964694 0.12777081
0.07824828 0.08732492 0.03358067 0.068075955 0.061935924 0.110570654 0.052368335 -0.032032073
0.053135302 0.03147037 -0.025537085 -0.03738906 0.028211515 0.007859925 -0.020124096 -0.036222506
-0.06919429 -0.034135077 0.013186493 -0.08085293 0.09519938 -0.019899385 0.078405954 -0.019408507
0.01274607 0.05312969 -0.034403197 0.020854045 -0.046700742 -0.054004326 -0.08181806 -0.024913318
-0.030218588 -0.041977428 0.0040093604 -0.003387963 -0.087855995 0.035349112 -0.09996844 -0.09993895
-0.1201189 -0.02139317 -0.07149412 -0.00019212105 -0.064565845 -0.02562979 -0.015319544 -0.024883704
0.052416716 0.03952429 0.045243487 -0.08379844 -0.014675623 0.04258178 0.005377492 0.006463478
-0.04403814 -0.06466477 -0.08663888 -0.066952735 -0.067196935 -0.08667304 -0.0009916818 -0.122072116
-0.07352671 0.0014872577 -0.041238487 -0.008234794 -0.043595277 0.028329672 -0.023136862 0.04728011
0.023904672 -0.041914083 0.055141043 -0.08435065 -0.021969302 -0.008284601 0.05201804 -0.0034819432
0.009476287 0.016527407 -0.028792458 0.02326625 0.04720867 0.10108155 0.03985135 -0.011411688
0.13484406 0.12493572 0.106004484 0.113653176 -0.014875944 0.068409264 0.018995266 -0.016007716

encoder.4.bias f4 [8]
00000000: ed3f 7ebd 5f42 8fbc 2902 0dbd 6c12 78bd
00000010: ba4b abbc 746f 65bd c10d de3c 3ad0 be3c
-0.062072683 -0.017487703 -0.03442589 -0.060564443 -0.020910133 -0.056014493 0.027106168 0.02329265

encoder.5.weight f4 [8]
00000000: 1046 703f 3bec 723f bc9f 783f e4e1 803f
00000010: 2b6a 8d3f e334 793f 4ffa 823f bcc4 813f
0.93856907 0.9489171 0.97118735 1.0068936 1.1048025 0.97346324 1.0232638 1.0138164

encoder.5.bias f4 [8]
00000000: 0cdb 18bd 8041 2dbe c9f1 1fbd 4407 af3d
00000010: f7b5 833d 0d7d aa3c db4e d73d fcd6 3e3d
-0.037318274 -0.16919518 -0.039048944 0.08546308 0.064311914 0.020811582 0.10513087 0.046591744

encoder.5.running_mean f4 [8]
00000000: 9825 f73e 0d02 8abd 1e20 60be 6352 0ebf
00000010: 3ea9 103e 9493 36be b819 023e 8400 30bf
0.4827087 -0.067386724 -0.21887252 -0.5559446 0.14127061 -0.17829734 0.12705123 -0.68750787

encoder.5.running_var f4 [8]
00000000: 6ce4 883f 8414 3740 bfda 9f3f fb3b 1240
00000010: 23f6 c03f 582c b43f c17f 3240 6b9c 493f
1.0694709 2.8606272 1.2488631 2.284911 1.5075115 1.4076033 2.7890475 0.787543

encoder.8.weight f4 [4, 8, 3, 3]
00000000: 79ee 003e 2f75 21bc b12a 303c ba30 6fbd
00000010: 9540 55bd 9951 2abe 003d d0bd 6ebf 22bd
00000020: a205 cd3d c8a9 f53d 0ea4 e83c 2c04 5fbd
00000030: 30b8 513c f783 cebc 4dc3 18bd 0037 d3bd
00000040: 9901 d63c 2f78 63bb a530 b4bd 5985 0fbc
00000050: 7a9f 653c d5cc 12be 46fa bfbd 6c23 80bd
00000060: ec9f fcbb ddae a3bd 29b0 d3bd dd4f 143e
00000070: 5877 9b3d 7d02 fe3d 32b7 c5bd 141e 7dbd
00000080: 4961 a83d bed5 8fbc d217 8fbd 9dfc 9a3c
00000090: 49b3 173e b12a 783c 4b5a 7c3d d6ad 933d
000000a0: 924a 623e b784 e93d 7687 643e 26c0 f33d
000000b0: c781 e93c 0352 853d b08c 74bb 8ab4 093e
000000c0: 2c32 d2bd 6747 0ebe dd34 efbb 66bb ba3c
000000d0: e9ab 08be cf7f b83c 6dfb fdbd d015 f2bd
000000e0: b834 eebc e767 07be 8755 ff3d 9dbc 9a3d
000000f0: 9729 49bd a053 123e 6868 143d 1d61 78bc
00000100: c83c b53b 0570 403e 9687 1f3d 8730 a43d
00000110: e4b2 1e3d 5569 733d 9c26 25bd bc78 173e
00000120: 7a30 8e3d 29ae dc3d e8d4 d63c 343a 0fbd
00000130: edeb 703d 40e9 cbbd 1426 383d f132 0bbc
00000140: c979 c6bd bed8 6dbd 2223 ce3c c777 67bd
00000150: 5061 17bd 0969 43bd 8417 efbd 4d00 52bd
00000160: 6e2d 0ebe b75e 30be fb7e a2bc 2e2b a0bd
00000170: ee5c 63bd de91 5abe 769b 4bbd 90e6 fcbd
00000180: f532 8dbb 0471 0abe ca2c 1cbd a7e1 86bd
00000190: 1581 47be 3b07 01be e374 98bd f3f8 9bbd
000001a0: e2c7 a4bd 3807 0fbd 0f65 593d 806c f8bd
000001b0: fb5e 1f3d 91c4 113d 3ddc 96bd 2046 03bd
000001c0: 554d b9bd 26ed a13d c70c 913d a808 593d
000001d0: a0b5 823d b9fb 90bd 0758 c83d 0d41 073a
000001e0: d1c8 2ebd 5605 aa3b 1755 a53d de24 cabd
000001f0: 2a3e ea3d c9c6 01bd f57d 3f3e 7f94 c63d
00000200: cbfb 313e 798c 793d f66f 0e3e 35f5 233e
00000210: cd4e 5a3e 278f a93d f47a 203e bda3 81bd
00000220: 3c77 38be 540d 45be 4ca6 3a3e 2e42 38bc
00000230: 351b 19bd 40c0 ee3d df47 093e 45bc 063d
00000240: e243 b8bc f09b aa3d e565 e23d 5192 e4bc
00000250: 8c96 6abd 4de7 833d 9ac6 013e eb72 313d
00000260: f191 de3d 95fe 083e 535b 423d 9864 9f3d
00000270: 8702 cb3d bec0 b8bd 1a5f 7cbb c1d2 e8bc
00000280: 9392 2b3c 9bea 753d 9ee4 b83c 1a62 eabd
00000290: 4bec 0bbd 3bd3 4ebd 47f2 17bd 9d1d e43c
000002a0: 83d2 ca3d e5a4 843d 403a 02bd 94aa 583d
000002b0: fd90 0f3a f742 c1bd 4fe8 04be 3eec ae3c
000002c0: 72dd a83c 41f4 71bd 90d4 f0bd 55ab 31bd
000002d0: 93a5 35be 49f9 48be 0d31 04be fcb7 47be
000002e0: 9923 d8bd 7be0 0cbe 8c35 74be 5616 31be
000002f0: 287e 81be c0e8 ec3d 4d8a 443d 5866 ba3d
00000300: 7751 0b3e c27b 003e 24c0 103e 11f6 d33d
00000310: 08e4 9abb 6605 f83d 953b 07bd f679 2ebd
00000320: 1a82 b4bd ddd8 f23c e9b3 4aba edf4 e83c
00000330: 541a edbc 925a f2bd 046e d93c ae8a 04bd
00000340: 41b3 bb3d de20 d5bd 1ee8 f1bd 5137 80bb
00000350: 73bf afbd ff64 513d 0edf 363d d54d d7bb
00000360: 4903 753d 9a11 1f3c bd7d 8f3d 1343 e4bd
00000370: c52c 18bd cdc0 86bd 35cb 553d 1437 03be
00000380: 7a5c 503d 1f37 dc3d 5afb dabc 7850 4b3d
00000390: 0a61 1d3e ada8 b33d 882c ff3d 9f9a e83d
000003a0: a233 0d3e 99ab 2f3e 9a0a 5fbd 1e26 b63c
000003b0: 6de4 c83d 873a 73bc 79d8 553d 93c4 043e
000003c0: c725 3d3d 9908 433d 50ee 613d 938a d9bd
000003d0: bf2c 90bc 569f 44bd e7ad d5bd a28c 653d
000003e0: d70a b9bc c00e 9e3c 7011 ea3a 62f2 e8bb
000003f0: 2e2d 883d e00d 123d f3a7 88bc 9a04 183d
0.1259097 -0.009854599 0.010752366 -0.05839608 -0.052063543 -0.1663269 -0.10167885 -0.039733343
0.1001084 0.11995274 0.02839854 -0.054447338 0.012800261 -0.02520941 -0.03729563 -0.10313225
0.026123809 -0.0034709086 -0.08798341 -0.00875982 0.014015073 -0.1433595 -0.09373908 -0.06256756
-0.007709494 -0.07992337 -0.10336334 0.1448359 0.075911224 0.12402818 -0.09654082 -0.061796263
0.08221681 -0.017557975 -0.06986965 0.018919284 0.14814486 0.015146897 0.061609548 0.07210891
0.22098759 0.114022665 0.22317299 0.11901884 0.028504265 0.06509783 -0.0037315302 0.13447776
-0.10263476 -0.13894425 -0.007300003 0.022794437 -0.13346829 0.022521881 -0.12401471 -0.11820567
-0.029077873 -0.1322323 0.12467485 0.075555064 -0.04911193 0.14289713 0.036232382 -0.015159872
0.0055309273 0.18792732 0.038947664 0.08017068 0.038744822 0.059426624 -0.040320024 0.1479215
0.0694284 0.10775406 0.026224568 -0.034967616 0.058818746 -0.09956598 0.04495819 -0.008496032
-0.096911974 -0.05806803 0.025163237 -0.056510713 -0.03695804 -0.04770759 -0.11674407 -0.051269818
-0.13884518 -0.17223631 -0.01983594 -0.07820736 -0.055508547 -0.21344706 -0.049708806 -0.12348664
-0.004309053 -0.13519675 -0.03812865 -0.065860085 -0.19482835 -0.12600414 -0.07444169 -0.07615843
-0.08045937 -0.034918994 0.053074893 -0.1213007 0.03890894 0.03558785 -0.07366226 -0.0320493
-0.09047953 0.079065606 0.07082515 0.05298677 0.063822985 -0.07079262 0.09782415 0.00051595346
-0.042671982 0.0051886244 0.0807287 -0.09870313 0.11437638 -0.031683717 0.18700393 0.09696292
0.17381208 0.06092498 0.13909897 0.16011508 0.21319123 0.08279257 0.15671903 -0.06330059
-0.18014234 -0.19243366 0.182275 -0.011246247 -0.037379462 0.116577625 0.13406323 0.03289439
-0.022493307 0.08330524 0.11054591 -0.0279018 -0.05727248 0.064406015 0.12673417 0.043322485
0.1086768 0.13378365 0.047450375 0.077828586 0.099125914 -0.09021138 -0.0038508833 -0.028420808
0.010471958 0.06003819 0.02256995 -0.11444493 -0.034160893 -0.050494414 -0.037096288 0.027846152
0.09903433 0.06476764 -0.031793833 0.05289705 0.0005476622 -0.09436601 -0.12979244 0.021352883
0.020613406 -0.05907083 -0.11759293 -0.043376286 -0.17738943 -0.19626345 -0.12909336 -0.19503778
-0.10553665 -0.13757508 -0.23848552 -0.17293677 -0.25291562 0.11567831 0.047983456 0.09101552
0.13605295 0.1254721 0.14135796 0.10349668 -0.0047268905 0.12110405 -0.033015806 -0.04259678
-0.088138774 0.029644424 -0.0007732497 0.028437102 -0.028943218 -0.11833681 0.026541717 -0.032358818
0.09165049 -0.104066595 -0.11811851 -0.003912844 -0.08581438 0.051121708 0.044646315 -0.0065705576
0.059817586 0.009708786 0.070064045 -0.11145606 -0.03715207 -0.065797426 0.052195746 -0.1281398
0.050869443 0.10752701 -0.026731182 0.049637288 0.15369049 0.08772407 0.124596655 0.11357617
0.13789228 0.17155303 -0.05445347 0.022234973 0.09809194 -0.014845497 0.052208398 0.12965612
0.046178605 0.04761562 0.055158913 -0.10622134 -0.017599462 -0.048003517 -0.1043356 0.05604232
-0.022588177 0.019294143 0.001785798 -0.0071089724 0.06649242 0.035657763 -0.016681647 0.037113763

encoder.8.bias f4 [4]
00000000: 5356 923c 90c2 853d 4579 9dbd 6077 673d
0.017863428 0.065312505 -0.07689146 0.05651033

encoder.9.weight f4 [4]
00000000: 58d4 873f ab75 853f 79c6 783f 29a9 583f
1.0611677 1.0426534 0.97177845 0.8463312

encoder.9.bias f4 [4]
00000000: 1e52 a83e 573c 413e 4fca 4c3e c16b 243e
0.3287515 0.18870674 0.1999905 0.1605673

encoder.9.running_mean f4 [4]
00000000: ff6b c53e c38a debb cf1a 00bf 0403 fa3e
0.38558957 -0.006791444 -0.50040907 0.48830426

encoder.9.running_var f4 [4]
00000000: e137 4e3f bfcc 2b40 c086 2d40 a65f 2d3f
0.80554014 2.6843717 2.7113495 0.6772407

encoder.12.weight f4 [2, 4, 3, 3]
00000000: 648c 05bb 13ee f3bd c0a3 753d cffe fabc
00000010: b11e e2be 831a 06be da66 e53d 8a21 15be
00000020: 40c3 98bc a923 debc 246e 52be 8776 a63c
00000030: ae04 69be 3e00 05bf d718 65be b1a3 f6bc
00000040: 49df fdbd c0ba 0c3c 28f4 cf3c f4f6 a43d
00000050: 667f 4bba 9a45 563d c984 e53d 8336 5c3d
00000060: cfb2 9e3d 5f1d 82bd b23c 443d fedd e53d
00000070: f049 9d3d 7834 633e 2b3b 09bd af45 023e
00000080: 05e7 d13c fad3 893d a47e e03d abb4 593d
00000090: 058d 2d3d aac0 d3bc 9d30 603d e6fa 2bbd
000000a0: 27fa bdbe b6de f8bd 56c2 0f3d d117 29be
000000b0: 1925 9e3d d0ea 99bc 41c9 af3d a182 dfbc
000000c0: 75e4 7f3d d427 ee3d 2086 17be 8fd4 a43c
000000d0: e372 083e 2afc bc3d b7ff 703d be98 663e
000000e0: 0abd 0f3d 778c 5a3e 67d4 3e3e 005b 5e3e
000000f0: 8968 fe3d b8b3 8e3e dcdd 18bc 939b 243d
00000100: 5c7a 8bbc 11db 8ebb 6d64 0cbe 4c2f 40be
00000110: 7f69 e0bd 3060 b2bc 5260 453b 51e2 103d
-0.0020377869 -0.119106434 0.059970617 -0.03063908 -0.4416404 -0.13096051 0.11201258 -0.14563575
-0.01864779 -0.027116613 -0.20549828 0.02032019 -0.22755691 -0.51953495 -0.22372757 -0.030107351
-0.12396104 0.008589447 0.025384977 0.08054915 -0.00077628193 0.05231247 0.112069674 0.053762924
0.07748949 -0.06353258 0.047909446 0.11223982 0.07680118 0.22187984 -0.033503693 0.12721895
0.025622854 0.067298844 0.10961655 0.053150814 0.042370815 -0.025848705 0.05473386 -0.041987322
-0.37104914 -0.12151854 0.035097443 -0.16512991 0.077219196 -0.018788725 0.08583308 -0.027283968
0.062473733 0.1162869 -0.14797258 0.020120887 0.13325076 0.09227784 0.05883762 0.22519204
0.03509239 0.21342646 0.18635713 0.21714401 0.12422282 0.2787149 -0.009330239 0.04018743
-0.017026119 -0.004359611 -0.13710184 -0.18768042 -0.10957622 -0.021774381 0.0030117226 0.035372082

encoder.12.bias f4 [2]
00000000: eec6 9d3b 479a 1f3e
0.004814974 0.15586196

encoder.13.weight f4 [2]
00000000: 205d 883e 3105 4b3e
0.2663355 0.19826199

encoder.13.bias f4 [2]
00000000: c7da 893f 81cd 7d3f
1.076989 0.991417

encoder.13.running_mean f4 [2]
00000000: b1ca 0bbf 78d6 eb3e
-0.5460616 0.46062064

encoder.13.running_var f4 [2]
00000000: 5cc3 a53f dee7 a03f
1.2950244 1.257076

decoder.1.weight f4 [4, 2, 3, 3]
00000000: 038b cebd d3ce b13d 1279 f4bd 7c25 8a3e
00000010: 10e1 133e 1fca d83d 282a 75be c68b 283e
00000020: f3cd 4ebd b789 b8bc fb4a 173e c857 dfbc
00000030: ea45 aabc e7ef fa3e 0028 4f3e a87b 713d
00000040: 3bdb 383e ed95 10be 7390 72bb 4967 75be
00000050: 54c0 473e 48bf 49be a15d fbbe 6451 8bbe
00000060: ae64 193e fece 88be c50b 8b3d 641d 173d
00000070: 9f64 d43d 4048 e0bd b0a6 ca3d caaf 8c3d
00000080: 3a83 cc3d 572c d7bd 82e8 1b3e 256d 37bc
00000090: 38ae 20be 3fb7 1cbd 47b0 fa3d cf9a 323e
000000a0: c726 8ebd dfad 86bd d508 30bd b520 903d
000000b0: 0337 19bd cff3 3c3e f98b 98bd 6aaa 69bd
000000c0: 11a8 5bbe f6e8 c7be c42e 14be 3576 fb3c
000000d0: 2c14 37be b00f 2b3e 59cf 993d 7ced 4a3e
000000e0: be11 88bd bcff 653e 6936 bf3e 2c94 9e3d
000000f0: 61ba a3bd 2e40 9a3e a19a 933c bda9 0dbe
00000100: d292 32be 67f8 6e3d afc8 acbd 11bb 53be
00000110: ebe4 433d de80 87bd 9758 a2bc 6428 51be
-0.10085108 0.08682027 -0.11937155 0.26981723 0.14441323 0.105854265 -0.23941863 0.1645957
-0.050489377 -0.022526605 0.14774697 -0.027263537 -0.02078529 0.49011156 0.20230103 0.05895582
0.1805238 -0.14119692 -0.0037012368 -0.23965181 0.19506961 -0.19701874 -0.4909487 -0.27210534
0.14979813 -0.26720423 0.06789354 0.036893263 0.103707545 -0.109512806 0.09895074 0.068694666
0.09985967 -0.10506504 0.15225413 -0.011195456 -0.15691459 -0.038260695 0.122406535 0.17441867
-0.0694099 -0.06576132 -0.042977173 0.07037488 -0.03740598 0.1845238 -0.07448573 -0.057047285
-0.21450831 -0.39044923 -0.14470965 0.030696014 -0.17878789 0.16705203 0.075102516 0.19817156
-0.06644009 0.22460836 0.373462 0.07743105 -0.07994533 0.3012709 0.018018069 -0.13834281
-0.1743882 0.058342364 -0.08436715 -0.20676829 0.047825735 -0.06616376 -0.019817634 -0.20425564

decoder.1.bias f4 [4]
00000000: a727 3d3e 3b31 203e 5613 333e 165d 3fbe
0.18472157 0.1564378 0.17487845 -0.18687853

decoder.2.weight f4 [4]
00000000: 8a13 6f3f b951 6e3f f2d4 823f a6b8 733f
0.9338919 0.9309345 1.0221236 0.95203626

decoder.2.bias f4 [4]
00000000: b403 ec3d 64ed 213f d94d 303d c5eb 8fbd
0.11524144 0.63252854 0.04304299 -0.07027391

decoder.2.running_mean f4 [4]
00000000: 2d70 ac3f 4bce 2fbf c476 11bf a641 3e3e
1.3471733 -0.68674153 -0.56821847 0.1857973

decoder.2.running_var f4 [4]
00000000: 4bab 453d eaaf 843d 2303 bf3c 77df 933d
0.04825906 0.064788654 0.023316925 0.07220357

decoder.5.weight f4 [8, 4, 3, 3]
00000000: 5a3a 0cbe f1a5 00be 495f 0bbe 0d31 c6bd
00000010: ab0a 7cbd ec6d e83d fffe d1bd 9f12 c83d
00000020: 64fe 0a3d 1474 893d 7330 413e a8ea 633d
00000030: a499 233e 3a66 523e e03d 243e 9106 1cbd
00000040: 1c91 593e 785e 64bc 1d47 5a3d b681 62bd
00000050: 48da 61bd 87fc 483c 2580 5dbd 6e1e f7bd
00000060: d7f8 4cbe 1640 9abc 271c 17be 15ff 0d3c
00000070: 102d f5ba c9af 37bc c8c2 81bd 5911 a0bd
00000080: 134b f6bd 4963 0abe f940 0ebd 6d58 9dbd
00000090: 0646 e4bc 2cb8 113d 01c6 103e 9101 963d
000000a0: 6a88 823e e65f e03b 015b a53b 18bf 533e
000000b0: f602 8ebd 2ed1 6dbd 27ab d6bd cf80 37be
000000c0: 4a26 20bd 9e55 e6bd bfb9 29bd f0ff cb3c
000000d0: 5ecf 13be 9328 10be b7e5 39be bcea 0dbe
000000e0: f420 823d e33d 2bbe a2db f8bd 6ee0 683d
000000f0: c7c9 41be 7a7d 9d3d 704d 63bd 9ad3 163c
00000100: 6e62 013e 767d 93bd 88f7 333e a342 7a3c
00000110: 0b6d 1e3e c821 413d e99d c03d 1118 9bbb
00000120: 71ee e63d 656c 1f3d dff0 393d 675e e03d
00000130: 3f9d cbbc 1a75 253e 7470 133d f003 453e
00000140: 1834 02bd 5d46 f33d f709 bfbd 155d e33b
00000150: 69a0 a0bb 6c9b 37bd d644 ef3d feb2 083e
00000160: eb01 acbd ef34 bdbd 7d64 9c3d b3c9 9dbc
00000170: bd04 4e3c 2eb4 9e3d 922d 603d d118 e23d
00000180: 685a 0fbe 15be 04be a7af 8dbc 3fae 0d3d
00000190: 3ed2 123e ee41 d4bc b6e6 ff3d 1cba ce3d
000001a0: 2c0b 513c 663f 18be e655 c03d 680c a9bd
000001b0: 916e 453c 9d4b aabb 444a f8bc 2ca6 a9bd
000001c0: 9c06 22bd f9a2 65bd 9f46 0bbe 1cae 23be
000001d0: 324e 10be d3a2 64be 954e 163e 4168 21be
000001e0: f1b8 9f3d 7284 a13c 591e 2f3e ef1c 1dbe
000001f0: d99b 313e 7933 8bbd 0f6f d9bd 7559 91bc
00000200: 6efe 873d 6655 d03d bcf2 043e 9ad9 f83d
00000210: 14a4 903d 8eb0 163e 9df4 abbc 5aa7 d4bd
00000220: 56e8 bcbc 83c2 12be 249d b03d be22 623e
00000230: 9629 99bd a95e c5bd 4fc5 97bc d457 36bd
00000240: 8ce1 a1bd d72d afbd 1346 683c 37fa 07be
00000250: 8a05 5cbd 50d4 7bbc 2129 edbd ed06 55bc
00000260: 968f 2ebe e051 0d3e 1ec3 ebbd 2ac9 42bd
00000270: 40e6 ea3d 377f 703e a507 aa3c 1e7f bfbb
00000280: 2b70 82bd 6e4e 8fbe 6c5a c63c 5042 6a3e
00000290: d1d5 ce3d df20 f33d 6492 ca3c 96eb 063e
000002a0: d596 1d3d 6bf5 9fbd 0aea 00bd 62e9 ea3d
000002b0: 64a0 e9bd 4594 133e 07ea a83d 204a d7bc
000002c0: ea2c 44bd 101c bd3c 856f 25bc 9f10 343d
000002d0: dd4a 0a3e 22dc 113e 5b77 353e b95c 1d3d
000002e0: ff36 413e e57e 5cbd a4db a4bc 231e b3bc
000002f0: cc62 533d 6b18 c2bb 8d67 0e3e 73a1 e63d
00000300: 3117 4cbb ff74 87bd 6645 b43d 549c cbbd
00000310: e0d3 e7bd 2b8b 9f3c 82f9 17be 7679 3ebe
00000320: e892 983d ff29 53bc a81e a1bd 930d 5b3d
00000330: 1ae8 163d 037d e2bd d3d9 a8bd f835 5cbd
00000340: 3d62 c9bd 0091 b73d f784 fe3d 282d 8fbd
00000350: 732f 29be 21fc cbbd b3ef ab3d 81b8 fd3d
00000360: 17b7 bbbd 284c a9bd 1130 f93d e8f3 5c3e
00000370: f568 8ebc cd85 013d 7d8a f9bc dde9 04bd
00000380: 842e 623c 6654 57be 0913 143d c82f 27be
00000390: abdd 443d f6bc 33be dcce 3fbe a6bf 4abe
000003a0: 4a19 09be 0141 09bc 5eb1 b0bd b339 e2bb
000003b0: c234 b83d edde 8c3e 558c 153e ab25 cf3d
000003c0: 6ccb babd ad6c a33d 3f54 0dbd 1753 9cbd
000003d0: 604e 303e 1c3c 3ebc 44db 123e 457e 623e
000003e0: 2d78 f63d 36e9 413c 05d3 d53d ec12 cbbd
000003f0: 34c6 23be 9911 d53d 0608 29bd 0716 513e
-0.13694134 -0.12563302 -0.13610567 -0.096773244 -0.06153361 0.11349091 -0.10253715 0.09769177
0.033934012 0.06711593 0.18866138 0.055643708 0.15976578 0.20546809 0.16039228 -0.0380922
0.21246761 -0.013938539 0.053290475 -0.055299483 -0.05513981 0.012267238 -0.054077286 -0.12066351
-0.200168 -0.018829387 -0.14756833 0.008666773 -0.0018705446 -0.011211344 -0.0633598 -0.07815809
-0.12026038 -0.13514437 -0.03472993 -0.076828815 -0.027865421 0.03557603 0.14138032 0.073245175
0.254947 0.0068473695 0.005046249 0.20678365 -0.069341585 -0.058060817 -0.104818635 -0.1792023
-0.039099015 -0.11246799 -0.041436907 0.024902314 -0.14434573 -0.14077978 -0.18154036 -0.13859075
0.063539416 -0.16722827 -0.12151267 0.056854658 -0.18924628 0.076899484 -0.055493772 0.009205723
0.12635204 -0.07201664 0.17574894 0.0152746765 0.15471284 0.047151357 0.09405119 -0.0047330935
0.11275948 0.038921732 0.04539573 0.10955506 -0.024855254 0.16157952 0.035995916 0.19239783
-0.03178796 0.11878655 -0.093280725 0.0069385865 -0.004901935 -0.044825956 0.11683051 0.1334953
-0.08398803 -0.09238612 0.07636354 -0.019261217 0.012574372 0.0774921 0.05473096 0.110398896
-0.13999331 -0.12963136 -0.017295672 0.034590002 0.14338014 -0.025910344 0.124951765 0.10094091
0.012759011 -0.14867935 0.09391384 -0.082543194 0.012050287 -0.005197002 -0.03030885 -0.08283648
-0.039557084 -0.056063626 -0.13601159 -0.15984386 -0.14092329 -0.22327738 0.14678414 -0.15762426
0.07798947 0.019716475 0.1710142 -0.15343069 0.17344607 -0.06796927 -0.10616886 -0.017742852
0.066403255 0.101725385 0.12983221 0.12150879 0.070625454 0.14715788 -0.020990664 -0.10383482
-0.023060005 -0.14332013 0.08623722 0.22083566 -0.07478635 -0.096371956 -0.018526701 -0.044517353
-0.07904348 -0.08553665 0.014176863 -0.13279043 -0.05371622 -0.015370443 -0.1158011 -0.0130021395
-0.17046961 0.13800764 -0.11511825 -0.047555126 0.11469698 0.23486029 0.020755598 -0.005844011
-0.063690506 -0.27989525 0.024213038 0.22876859 0.10099376 0.11871504 0.024728008 0.13175806
0.038473923 -0.07810482 -0.031473197 0.114702955 -0.11407545 0.14412029 0.08247762 -0.026280463
-0.047894396 0.02308467 -0.010097389 0.043961164 0.1350512 0.1424413 0.17721312 0.038418505
0.18868636 -0.053831954 -0.020124264 -0.021864956 0.051607892 -0.005923321 0.13906689 0.11261263
-0.0031141753 -0.06614112 0.08802299 -0.099419266 -0.11319709 0.01947554 -0.14841273 -0.18601021
0.07449895 -0.012888431 -0.07867175 0.053479742 0.036842443 -0.11059 -0.08244672 -0.053762406
-0.098331906 0.089632034 0.12427705 -0.06991035 -0.16522007 -0.09960199 0.083953284 0.12388707
-0.09165781 -0.08266479 0.12167371 0.21577418 -0.017384032 0.031621743 -0.030461544 -0.032449592
0.0138050355 -0.21028289 0.036150966 -0.16326821 0.04806296 -0.17552552 -0.18731254 -0.1979967
-0.13388553 -0.008377315 -0.0862758 -0.006903851 0.08994438 0.2751383 0.14604314 0.101146065
-0.09120831 0.07979713 -0.03450417 -0.07633036 0.17217398 -0.011611011 0.14341456 0.2211848
0.120346405 0.011835387 0.104406394 -0.099157184 -0.15993577 0.10403747 -0.041267417 0.20418559

decoder.5.bias f4 [8]
00000000: c8cb 82bd 4730 f33d e221 9f3d 4bb1 a5bd
00000010: 07ed d5bd a0c3 f93d 2429 17be cd35 f13b
-0.063865244 0.118744425 0.077701345 -0.080904566 -0.104456 0.12195516 -0.14761788 0.00736115

decoder.6.weight f4 [8]
00000000: 1fbc 833f 22c3 853f 82e6 663f 7451 883f
00000010: e385 833f 8990 653f abd0 883f 8030 743f
1.0291785 1.0450175 0.90195477 1.0649858 1.0275234 0.8967367 1.068868 0.95386505

decoder.6.bias f4 [8]
00000000: 7929 873d d099 94bb b9c0 e3bd 9b28 383c
00000010: 2ad5 813b 2d72 81bc 2e05 b2bd 6008 5a3c
0.06599707 -0.0045349374 -0.11120743 0.01124015 0.0039621787 -0.015801514 -0.08692394 0.013307661

decoder.6.running_mean f4 [8]
00000000: b693 303e ec54 a2be 39b7 e33e 8470 43be
00000010: e7fd 95bd ef5b 753e 3f3a ffbe 1619 d4bc
0.17243847 -0.31705415 0.44475725 -0.1908589 -0.07323819 0.23960851 -0.49849126 -0.025890868

decoder.6.running_var f4 [8]
00000000: b7e4 4b3f 73af 933f 5878 243e eb98 a63e
00000010: 064f c03e 7cf1 913e 8755 493f 54b0 6b3e
0.79645866 1.1537918 0.16061532 0.32538542 0.3756029 0.2850455 0.7864613 0.23016483

decoder.9.weight f4 [16, 8, 3, 3]
00000000: 7090 aebd 7c58 de3c 4be4 553d 68ac c93d
00000010: 8e40 163e 604c f83d 724e 913d c1a3 a43d
00000020: bfff 093d 9737 643d 031c c23d 0d6a 963d
00000030: 45b8 a03c b11f 223e 242a a23d a29b 0bbd
00000040: 91ba 093e 4045 af3d 9fb2 86bb b7a7 4f3d
00000050: 5fa7 d63d 2792 653d 0fed 173e 838d 83bd
00000060: ebf6 a2bd 86e1 97bd 9264 4b3d bf3d 2cbd
00000070: 2916 aabd 3eb1 43bd 3be7 0cbd b9f6 16bb
00000080: edd3 a23a 3880 c63c e7d8 c13d 6c61 57bc
00000090: 3f84 db3b 1042 69bd b940 2eb9 a57f 633d
000000a0: 0289 95bd 6013 ee3c e170 8abc 7b3e eabd
000000b0: 90da 01bd 52b0 1fbd 16be 78bc 2ab1 edbb
000000c0: 32ea d53c 157a afbc c21f 2d3d 7e6d cbbd
000000d0: fc17 7d3c baee 1dbc e8e5 c2bd fd8e 0abd
000000e0: aae3 d0bc fd39 603d 83e2 d4bd 678f c4bd
000000f0: fa4d 5f3d 06b4 b63c 43ec b5bc 11f3 ee3d
00000100: cf11 dfbc 7d9b f33d 009b a63d 1677 00bd
00000110: 2fb0 dc3d 7dee 673c aadf 8bbc a2c8 6abc
00000120: 207f f33d 81ad 333e a0d6 42bc 8b38 aa3d
00000130: cd46 373d 8219 a03d 7fce 84bc e4bc 833c
00000140: d71e 8bbc 2c6d 86bd 4718 423d d5c2 b3bd
00000150: 24bc a3bc 34b3 dabc 9cba afbd 1fa8 e0bd
00000160: 4d8b 15be 456f e7bd 106d 433d c51c 3a3c
00000170: 5974 693d 2e72 663d 80da ddbd 78f7 843d
00000180: ca2a 743d 5793 423b 8d37 a8bd fd08 453d
00000190: f7fd 55bd 3a55 afbd 0432 cd3c 2c88 523e
000001a0: 1ff8 a73c 23f9 b43d bbf6 dd3d 9263 f13c
000001b0: 7389 fb3c a360 0a3e e1fd 763c 4718 50bb
000001c0: 377f 013d baf4 b5bb 33b4 02bc fba2 bb3d
000001d0: 0514 6abd a28e 0dbd 7b95 9e3d 1147 6bbd
000001e0: 49a7 54bc f38d 283c 4257 b5bc 0d12 413d
000001f0: 16fa aa3d 96b5 4abd 1ba0 d8bd 127a f2bd
00000200: 3e8c a8bd 8b44 10be 0b45 84bd f0f6 be3c
00000210: c208 bebd 3e0a efbc aa28 fc3b 4a18 b63d
00000220: f2b7 bfbb e5a7 4b3d 563f bcbb d094 cabd
00000230: 6d86 cc3d 87f6 b13d e170 b13d a1e9 833c
00000240: 005b 2abe a6dc 3d3c 16f3 33be 9141 b7bc
00000250: 5493 1fbe 6e87 08be b08d 5f3c d877 c9bd
00000260: 132d bd3c 24f0 1b3c 2baa 263e b1b1 463c
00000270: a479 8bbd 1583 c1bc ef63 313e 3187 033e
00000280: 9af2 1f3d 2639 63bd e288 f33d e154 5f3d
00000290: 2fe5 863d 4166 7f3d 50bb f53d 1e54 6d3d
000002a0: d320 5d3d c50c e9bc df6b b7bd ecf1 13bd
000002b0: 441e 203d a91a 493c caa3 da3c 93f3 aa3d
000002c0: e5bc c93d 4665 02bc 9624 fd3d a625 e23d
000002d0: c596 413d 5fa3 c73c b736 88bd 216b de3d
000002e0: 40a5 a1bd bc4c 07bc 3f29 9b3d afe8 c23b
000002f0: 2d3c 273c a634 833d 953c 86bd 7fd9 b5bd
00000300: 5cf6 c7bd 91f9 bc3c 5935 aebc 02d0 babd
00000310: 9c29 023e 0ee5 873d 5781 3ebd 9def 353d
00000320: 3ee0 06bd ef12 893d 838e ae3c 37f6 b8bd
00000330: 1ed0 c7bd 67f0 abbd 125b f2bd 2d52 113d
00000340: 53c6 97bd 90ec d13c c745 59bd a65f 36bd
00000350: 3c8a 193d f67c 893d daa2 0dbd 5ca8 88bc
00000360: 3bd9 02bd 1fc5 56bd 4d28 1bbe ce16 5d3d
00000370: b61d 2cbd f8f1 16bd cc56 0fbe 73dc 173d
00000380: 9b06 f43c 3495 613c 1ff9 b5bd d737 d63c
00000390: fc39 e33d 6b2e 243d 921e 813b b50c 653d
000003a0: cb08 aabd f212 c0bc 01d0 a4bd 34ed a6bb
000003b0: 9e28 b5bd 6b89 babd 48e7 733d 6972 843d
000003c0: 23e0 7f3b 405a 963c 3b89 2abc 357f ab3d
000003d0: b973 ccbd 9ea1 87bd 089a 98bd 9dac 663d
000003e0: 3cd0 d3bd a888 a4bd 27f7 07be e965 b13c
000003f0: b8e2 ba3d 38ec abbd 4a68 cf3d 26a3 a4bd
-0.08523643 0.027141802 0.05221967 0.09847337 0.14673063 0.121239424 0.070950404 0.08039046
0.033691164 0.055717077 0.09477999 0.07344446 0.019619117 0.15832402 0.07918194 -0.03408397
0.13450076 0.0855813 -0.0041106488 0.050697055 0.10481142 0.056047585 0.14836524 -0.064234756
-0.07957252 -0.07416062 0.04965646 -0.042051073 -0.08305008 -0.047776453 -0.034400206 -0.0023035242
0.0012422778 0.024231061 0.09465199 -0.013145786 0.0066991146 -0.056947768 -0.00016618044 0.055541653
-0.07301523 0.029061973 -0.016899528 -0.114376985 -0.031702578 -0.03898651 -0.015182039 -0.0072537856
0.02611265 -0.021420518 0.042266615 -0.09932993 0.015447613 -0.009639436 -0.095165074 -0.03382777
-0.025499184 0.054742802 -0.10394766 -0.09597664 0.054517724 0.022302639 -0.022207385 0.11667455
-0.027230171 0.118948914 0.08135033 -0.03136357 0.10775792 0.014155981 -0.017074425 -0.014330061
0.118894815 0.17546655 -0.011891991 0.08311566 0.044745255 0.07817365 -0.016211746 0.016081281
-0.016982479 -0.06563792 0.047386434 -0.08777396 -0.019987173 -0.026696779 -0.08580515 -0.109695666
-0.1460392 -0.1130052 0.047711432 0.011359398 0.056995723 0.056261234 -0.10832691 0.064925134
0.05961112 0.0029689872 -0.082137205 0.048104275 -0.052244153 -0.085611776 0.025048263 0.20559758
0.020504056 0.088365816 0.10838076 0.029466424 0.03070519 0.13513426 0.015075178 -0.0031752752
0.031615462 -0.0055528553 -0.007977533 0.091619454 -0.057148 -0.034559853 0.07743355 -0.05744082
-0.012979337 0.01028775 -0.022136334 0.047136355 0.08348481 -0.04948958 -0.10577413 -0.11839689
-0.08229874 -0.14088647 -0.064584814 0.023311108 -0.09279014 -0.029179689 0.007695277 0.088913515
-0.0058507854 0.049720664 -0.005744855 -0.09891665 0.09986577 0.086895995 0.08664108 0.016102614
-0.16636276 0.011588251 -0.17573199 -0.022370132 -0.15583545 -0.13332912 0.013644621 -0.098373115
0.023092782 0.009517703 0.16275851 0.012127326 -0.068103105 -0.023622075 0.17323278 0.1284454
0.039049722 -0.055474423 0.11891343 0.054524306 0.06586682 0.062353376 0.11998618 0.05794155
0.05398638 -0.028448472 -0.08956122 -0.036119387 0.039091364 0.012274423 0.026689429 0.08347239
0.09850482 -0.007958716 0.12360494 0.11042337 0.047262926 0.024369894 -0.06651061 0.10860277
-0.07892847 -0.008258041 0.075762264 0.005948148 0.010207218 0.06406526 -0.06554524 -0.08879375
-0.09763786 0.023068221 -0.021265673 -0.091217056 0.12711185 0.066354856 -0.046510067 0.044417966
-0.032928698 0.066930644 0.02130819 -0.09031337 -0.09756492 -0.083954625 -0.118337765 0.03547876
-0.07410874 0.025625497 -0.05304506 -0.04452481 0.037485346 0.067132875 -0.034579135 -0.016681843
-0.03194545 -0.052434083 -0.15152092 0.053976826 -0.042020522 -0.036851853 -0.13997954 0.03707547
0.029788306 0.013768483 -0.08885407 0.026149673 0.11095044 0.04008333 0.003940412 0.05592032
-0.083024584 -0.023446534 -0.08047486 -0.005094195 -0.08845638 -0.09108242 0.05954674 0.064671345
0.0039043508 0.018353581 -0.010408695 0.08373872 -0.0998301 -0.06622623 -0.07451254 0.05631696
-0.10342452 -0.080338776 -0.13277875 0.02165504 0.091252744 -0.083946645 0.101273134 -0.080389306

decoder.9.bias f4 [16]
00000000: c98f 523d 6ef2 193d d363 b7bd b0b3 b03b
00000010: c15c 66bd 96ed 90bd 59df eabd 1fc3 b5bd
00000020: 3d68 b4bd ad6e 8f3d 3035 7a3c abf4 aabc
00000030: cde6 25bd 6ebe a83d 3e3e bebb 9169 7e3c
0.051406655 0.037584715 -0.08954587 0.005392514 -0.0562408 -0.07076566 -0.114683814 -0.08875107
-0.088089444 0.070035316 0.01527147 -0.02086862 -0.040503312 0.082394466 -0.0058057597 0.015528099

decoder.10.weight f4 [16]
00000000: e98a 793f 0969 833f cdea 803f 900f 803f
00000010: ad78 763f 28af 843f d18d 863f 1d79 823f
00000020: 4a53 7c3f fe11 843f 918c 803f 4465 783f
00000030: b3a1 783f e728 863f 5113 783f f344 8f3f
0.97477585 1.0266429 1.0071656 1.0004749 0.96277887 1.0365953 1.0512029 1.0193211
0.9856459 1.0317991 1.0042897 0.9702952 0.97121733 1.0481232 0.96904474 1.1192917

decoder.10.bias f4 [16]
00000000: e1a5 bb3a 520b cebd d81d 94bd 4a02 a03d
00000010: bdcd cb3c 7658 9cbd b1ea 293d 2366 1fbe
00000020: 75b8 a13b 27c8 13be b86a 5dbd 5452 30bc
00000030: 37ac 1dbd ab27 7cbe 46fd 323d 7149 a7bd
0.0014316404 -0.10060753 -0.07232255 0.078129366 0.024878377 -0.0763406 0.041483585 -0.15566306
0.004935319 -0.14431821 -0.054056853 -0.010761816 -0.038494315 -0.24624507 0.04369857 -0.08168305

decoder.10.running_mean f4 [16]
00000000: 74ec ee3e b188 413e f400 92bd c005 cebe
00000010: 7ffa 203f fabb 883e 28b5 163f 9763 1d3e
00000020: e0ae 283e a2b5 8d3d 89df f2be e70f 2a3f
00000030: 2489 363e 2d36 003d 65ab 033f 63b0 ad3e
0.46664774 0.188998 -0.07129088 -0.40238762 0.62882227 0.26705915 0.5887017 0.15370022
0.1647296 0.06919409 -0.4743617 0.66430515 0.17825752 0.031301666 0.514334 0.33923635

decoder.10.running_var f4 [16]
00000000: 66a5 d13e 5410 453f e92d a83e 8752 1a3e
00000010: 7ff0 623f 8330 683f df0a 4c3f 8b58 ab3e
00000020: 9c43 773e 8c57 1b3f 774c c53e 1e31 a63e
00000030: 0c83 023f 7eff 2b3f 204b 6f3f 13ab 7e3f
0.40946501 0.7697804 0.32847527 0.15070544 0.8864822 0.90699023 0.7970409 0.3346599
0.24146885 0.6068046 0.385349 0.32459348 0.5098121 0.67186725 0.93474007 0.9947979

decoder.13.weight f4 [2, 16, 3, 3]
00000000: 7d83 9b3c 81e6 313d bfe4 093e efc1 8a3d
00000010: e863 cd3c 154e 153e b383 c63c 3586 a43c
00000020: bfd4 343d 18ef 943d 1b81 9c3d 2214 053e
00000030: fd6f cf3d b140 273e 7a43 ea3d 6fde b13d
00000040: c9a1 ee3c f56c 903d 790c 24bd 62fd 20be
00000050: 374e 1abe c4e4 89bb d6e3 85bd d596 3cbb
00000060: 3292 73bd 4b1b d9bc 5370 52bd 9f4b 3cbd
00000070: 5039 233d 710b 1f3d 68c4 203c 2a4f 273d
00000080: fbaa 44bd dce6 9d3d cd18 623d daca a2bd
00000090: eb3d e93c 20ac 03bd 4793 b3bc f68e 7dbd
000000a0: 2f1b 433d 0bae 6d3b 1ccc 05bd 319e 43bd
000000b0: 2037 c73c 4041 80bd 34da 37be 7a1d 4cbd
000000c0: 3a2b edbd 3c1b 94bd 16df 5cbd 3a88 adbd
000000d0: 5326 27be 9e37 5cbd ea4d 68bc 0066 1b3d
000000e0: 736b b4bc 4d12 713d eb62 523a dfaf 7b3c
000000f0: 9e49 96bd cca3 07bd d235 903d e1cf 0e3d
00000100: 5133 443e 793b 2e3d 4dad 053e d9eb 973d
00000110: 9365 3b3e 67f6 ee3d 09f8 633e 2d38 2c3e
00000120: 81e2 963d 7762 f53d af08 7ebc 6d97 d03d
00000130: 2862 9c3d 00bd ee3d 29d8 023e c17b 993d
00000140: e244 87bb 3b03 f5bc 18d5 6d3c 5860 123d
00000150: a5dd 103d 90cc 513d d6f8 433c 241e a0bd
00000160: 6735 4ebc 47a5 a8bd a88d e7bd e704 a8ba
00000170: dd11 90bd 579f 0bbd b00f a7bd 71ee 9cbd
00000180: 0bed d6bc fc27 763c 85fd dfbc f886 acbc
00000190: b121 b93d fd74 c43d 2781 033e c6d6 eebb
000001a0: 7a0b 963d 568b a73c 1297 ea3d 2473 e5bc
000001b0: 57dc c7bb 8e05 ac3d 4c06 bb3c a637 ad3d
000001c0: 7980 7e3d 8b95 233d 1290 a8ba 3801 8f3d
000001d0: 670e 413d 2203 41be 1258 24be f6e9 a4bd
000001e0: 7b51 81be ce2f 94be d4d3 42be 2785 6cbe
000001f0: a5aa 07be 9c6b dfbd 0c5c a03d 718d 0cbd
00000200: d4d5 e33d b98e 3f3d 9026 40bd d70b 18bd
00000210: 7437 7b3d 2e96 bc3d 5355 7dbd 6782 56be
00000220: 57fc 34be 89f7 24be a6e7 63be aadd 82be
00000230: f3b8 74be 0ae1 11be dd69 18be 4a18 45be
00000240: e5b3 6bbc 678d f33d cddc 603d e6fc 2e3b
00000250: a2cd b13d 50ef 893d f864 de3a 6bb1 e23d
00000260: 64cc ee3b 4224 b5bd cf95 21be 0f96 82bd
00000270: a50d 11bd 821f 03be b74e f2bd fc66 02be
00000280: 8162 05be 749b c4bd 48e2 0fbd 5f69 6ebd
00000290: ee3e 903b ace1 61bd 75ea d9bd 3533 c0bd
000002a0: efff 87bd 2bc0 21bd 7165 0abe 487b e7ba
000002b0: ecfd 953d ffef 763d 209a 283e 8efc d73d
000002c0: bfc0 913d 6da4 a03d c576 ab3d 7dd3 0b3d
000002d0: c0db a93d 89fc b23d fb88 bf3c e370 d43d
000002e0: 7cb7 e83d f13d 20bd a598 953b b33f 933d
000002f0: 50ca 933d cad1 05be acc1 12be c280 eebd
00000300: 3da9 b5bd e289 7cbd 825d babd 3590 63bd
00000310: 3943 f0bd f842 91bd 5380 0fbe fd53 21be
00000320: 3c40 c6bd 7138 6ebe 2a5e 1abe b716 59be
00000330: f544 0abe 54ea 61be c826 27be 9ae3 453c
00000340: b6ba 2ebd 93d6 13bd 0f10 923a 8219 163d
00000350: 758b 593d 7da6 2dbd 9772 243d 8a4c 19bd
00000360: bf1e d03d 0464 c63c 93f4 bc3d 3433 413c
00000370: e37d dc3d bcfd ccbc 440f 843d c6a0 783d
00000380: f5f8 acbc 73e4 fd3d bf66 f23d 55b8 f03d
00000390: d3b1 063e 3174 3c3e 2d3a 443e 4c6b 273e
000003a0: 7edb dc3d d8c4 2a3e ce11 e8bd 5d58 00be
000003b0: fe51 f6bd fdcf 673b 3d8d e4bd d700 3ebd
000003c0: 4a68 2dbd 9005 43bd 80c4 0abe 0e51 1bbd
000003d0: 9fd0 87bd 1eaf a2bd 6908 3bbd b9e5 26bd
000003e0: d522 5dbd 94f2 8d3d 548e 9e3d 477f d93d
000003f0: fc3e 583d 4313 0c3e c047 bb3c 3264 053e
0.018983597 0.043432716 0.13466166 0.06775271 0.025072053 0.14580567 0.024232721 0.020083526
0.044148203 0.07272166 0.076418124 0.12995961 0.10128782 0.16333272 0.114386514 0.08685004
0.02912988 0.07052032 -0.040050957 -0.15721658 -0.15068899 -0.004208179 -0.06537597 -0.0028776426
-0.059465595 -0.026502272 -0.051376652 -0.045970555 0.03984958 0.03882927 0.009812452 0.04084698
-0.048014622 0.077100486 0.055199433 -0.07948847 0.028471908 -0.032146573 -0.021920813 -0.061903916
0.047633346 0.0036267068 -0.032665357 -0.047758285 0.024318278 -0.062624454 -0.17954332 -0.0498328
-0.115805104 -0.07231757 -0.05392369 -0.08473249 -0.16323213 -0.05376398 -0.014178732 0.03793907
-0.022023892 0.058855344 0.0008025604 0.015361755 -0.0733826 -0.033115193 0.070415154 0.034866218
0.191602 0.042537186 0.1305439 0.07418031 0.18300466 0.11668091 0.22262587 0.16818304
0.07367421 0.11981671 -0.015505 0.10185132 0.07635909 0.11657143 0.12777771 0.07494307
-0.0041280845 -0.029908767 0.014516138 0.03573641 0.035367627 0.051220477 0.011961183 -0.07818249
-0.012585974 -0.08234649 -0.11306316 -0.0012818844 -0.07034657 -0.034087505 -0.08157289 -0.076626666
-0.026236078 0.015024181 -0.027342567 -0.021060452 0.09039629 0.09592626 0.12842236 -0.0072887866
0.07326408 0.020452183 0.114545956 -0.028009005 -0.0060992646 0.08399497 0.022830151 0.0845788
0.06213424 0.039937537 -0.0012860319 0.06982654 0.047132876 -0.18848851 -0.16049221 -0.08052437
-0.25257477 -0.28942722 -0.19026119 -0.23097669 -0.1324869 -0.10909197 0.078300565 -0.034314577
0.11124769 0.04676697 -0.046911776 -0.037120666 0.06133218 0.09208332 -0.06184895 -0.20948182
-0.17674385 -0.16110052 -0.22256336 -0.2555974 -0.23898678 -0.14246002 -0.14884134 -0.19247547
-0.014386152 0.11892205 0.054898072 0.0026701032 0.086817995 0.06735098 0.0016967347 0.11068996
0.007287549 -0.08844806 -0.15779804 -0.06376278 -0.035413403 -0.12804988 -0.1183142 -0.12734598
-0.13025858 -0.09599963 -0.035127908 -0.05820596 0.004402033 -0.055146858 -0.10640422 -0.09384767
-0.06640612 -0.039489906 -0.1351526 -0.0017660642 0.073238224 0.06028747 0.16465044 0.10546218
0.071168415 0.07843862 0.08372263 0.034137238 0.08293867 0.087395735 0.023380747 0.10373094
0.11363122 -0.039121572 0.004565316 0.07189884 0.072163224 -0.1306831 -0.14331692 -0.11645652
-0.0887017 -0.061654933 -0.090998664 -0.05555745 -0.11731572 -0.070928514 -0.14013796 -0.15754695
-0.096802205 -0.23263718 -0.15074983 -0.21200071 -0.13502868 -0.22062045 -0.16323388 0.01207819
-0.04265853 -0.036093306 0.0011143702 0.03664542 0.053111512 -0.042395104 0.040148344 -0.03742651
0.10162114 0.024217613 0.09226336 0.011791993 0.107661985 -0.025023334 0.06448224 0.0607002
-0.021114806 0.12397089 0.118360035 0.117539085 0.13153772 0.18403699 0.19162817 0.16349524
0.10784052 0.16676652 -0.11331521 -0.12533708 -0.120273575 0.0035371773 -0.111597516 -0.04638752
-0.042335786 -0.047612727 -0.13551521 -0.037919097 -0.06631588 -0.07943557 -0.045662317 -0.040746424
-0.053988297 0.06931034 0.07741991 0.10619979 0.05279444 0.13679223 0.022861362 0.13026503

decoder.13.bias f4 [2]
00000000: 9e01 423c 7463 3cbe
0.011841206 -0.18397313
