Models/Submitted/optical_wghts.pth (torch_old, 24148 bytes, 44 tensors)

encoder.0.weight f4 [16, 2, 3, 3]
0	0x3e25e4a3	0.16200499
1	0x3983bc51	0.00025126574
2	0x3e160f89	0.14654364
3	0xbdebfb0a	-0.11522491
4	0x3d41aff6	0.04728695
5	0xbe333add	-0.17502923
6	0xbde87a41	-0.11351443
7	0x3e21c38e	0.15797254
8	0xbcb10b2a	-0.021611769
9	0x3e327eab	0.17431132
10	0xbdf906f8	-0.12159532
11	0xbdf4645d	-0.11933205
12	0xbe1ec428	-0.15504515
13	0xbe9d09b3	-0.30671462
14	0xbe9440a8	-0.2895558
15	0x3bbf19c7	0.0058319303
16	0x3db667b6	0.089065
17	0x3da2c8d3	0.079484604
18	0x3d92a950	0.071612
19	0x3dc1c9c2	0.094623104
20	0xbe1de72b	-0.15420215
21	0x3cd57067	0.026054574
22	0x3e7f2f88	0.24920475
23	0x3e4c45d3	0.19948511
24	0x3ca19f4b	0.019729277
25	0x3e4c7ffc	0.19970697
26	0x3df915e0	0.121623755
27	0x3e4e0847	0.20120345
28	0xbe15e656	-0.14638647
29	0xbcf05deb	-0.029341659
30	0xbd75f5d6	-0.0600489
31	0xbdd561fb	-0.10419079
32	0x3b76c984	0.0037656734
33	0x3e1c434f	0.15260051
34	0x3dcb1e91	0.099179395
35	0x3c5ca777	0.013467661
36	0xbc4f36df	-0.01264736
37	0x3d2d9cac	0.042385742
38	0x3da99736	0.08280794
39	0x3e480e3a	0.19536677
40	0x3e78ddaa	0.24303308
41	0x3e3ff0f8	0.18744266
42	0x3e7d3d8c	0.2473051
43	0x3df38609	0.118907996
44	0xbd90cdd0	-0.070705056
45	0x3e19eff4	0.15032941
46	0x3e3acd45	0.18242367
47	0x3c5a58f6	0.013326874
48	0xbd8f5000	-0.06997681
49	0x3c5b952e	0.013402266
50	0x3e15c35c	0.14625305
51	0xbdbf802f	-0.09350621
52	0x3e359021	0.17730762
53	0xbd5d654c	-0.054051682
54	0xbe028ecd	-0.12749787
55	0x3e089eca	0.13341823
56	0x3e0e356a	0.13887563
57	0xbe224a38	-0.15848625
58	0x3e0a807f	0.1352558
59	0x3e2b37b9	0.16720475
60	0x3b669723	0.00351853
61	0x3e79bbfd	0.24388118
62	0x3e3fdbc2	0.18736175
63	0x3e29ed32	0.16594389
64	0xbd8bee0c	-0.06832513
65	0xbd92a4b6	-0.07160322
66	0x3d82e170	0.06390655
67	0x3d9ee56e	0.07758604
68	0xbcead5bd	-0.028666371
69	0x3d530076	0.05151411
70	0x3e80c2df	0.25148675
71	0x3e4ecbb3	0.20194893
72	0x3d7d44a5	0.061833043
73	0x3d63c8a6	0.055611275
74	0xbe17ff8b	-0.14843576
75	0x3ea860bf	0.3288631
76	0xbe2d51fe	-0.16925809
77	0xbe16464f	-0.14675258
78	0x3e694a4b	0.22782247
79	0xbe05aab9	-0.13053407
80	0xbd487067	-0.04893532
81	0x3f092544	0.5357249
82	0x3eb597ac	0.3546728
83	0x3e817b42	0.2528935
84	0xbc4e7b44	-0.012602631
85	0xbe940b9f	-0.28915116
86	0xbd3c81be	-0.04602217
87	0x3e7eac27	0.24870358
88	0xbf00720a	-0.5017401
89	0xbf0f361e	-0.5594195
90	0x3de88b83	0.11354735
91	0x3dfd3284	0.12363151
92	0xbc30934f	-0.010777309
93	0xbe11d3ed	-0.14241
94	0xbe04a893	-0.12954931
95	0x3e344b70	0.17606902
96	0x3e056637	0.13027273
97	0xbd19392b	-0.037408035
98	0x3e40babf	0.18821238
99	0xbe998ab9	-0.2998865
100	0xbe50bc48	-0.20384324
101	0xbe87e1ae	-0.26539367
102	0x3c8bdbf7	0.01707266
103	0xbe63f2ff	-0.22260664
104	0x3e2bd0fa	0.16778937
105	0x3e608528	0.21925795
106	0x3c39c861	0.011339278
107	0x3e4472fe	0.19184491
108	0xbe823a0b	-0.25434908
109	0xbe23a175	-0.1597956
110	0xbe43abcd	-0.19108506
111	0xbe4c4759	-0.19949092
112	0xbdb2b1d9	-0.08725328
113	0xbdd8c4c7	-0.10584407
114	0xbe3540b7	-0.17700468
115	0x3d671bf0	0.056423128
116	0xbc846e45	-0.016165862
117	0xbdba2d92	-0.09090723
118	0x3dcdf40f	0.10056316
119	0x3d6e70bb	0.058212977
120	0xbd3812f0	-0.044939935
121	0xbd049ee5	-0.032378096
122	0xbdbe373b	-0.09287878
123	0xbe8dc232	-0.27687222
124	0x3e12605c	0.1429457
125	0x3b175491	0.0023091177
126	0xbd47b37e	-0.04875516
127	0xbda00a2c	-0.0781444
128	0xbe0f5076	-0.13995537
129	0xbc6f2155	-0.014595349
130	0xbe14256a	-0.14467397
131	0xbe439aa4	-0.1910196
132	0xbddacb5a	-0.106833175
133	0x3cc6bb41	0.024259211
134	0xbe0b590b	-0.13608186
135	0x3dcae45a	0.09906836
136	0xbe6d2d51	-0.23161818
137	0x3e425112	0.18976238
138	0x3b1886c7	0.0023273693
139	0xbe5012d4	-0.20319682
140	0xbdadec5d	-0.08492348
141	0xbe564773	-0.20925693
142	0xbe2e58dd	-0.17026086
143	0x3d78ebec	0.060771868
144	0xbdad758d	-0.08469687
145	0xbe8b7fa9	-0.27245834
146	0xbe441990	-0.19150376
147	0x3e0995f7	0.13436113
148	0x3e01713f	0.12640856
149	0x3da0e86b	0.0785683
150	0xbe624e6b	-0.22100227
151	0xbe603fc6	-0.21899328
152	0xbd7ab5fc	-0.06120871
153	0xbd3c1c11	-0.045925204
154	0x3df15e61	0.117855795
155	0x3c8d61f7	0.017258627
156	0x3e14e1cc	0.1453926
157	0x3dec5b95	0.115409054
158	0x3e21a22d	0.15784521
159	0x3e53fb41	0.20701315
160	0x3cb6b39c	0.022302441
161	0xbe42ebb1	-0.19035222
162	0x3d621760	0.055198073
163	0xbd7beb99	-0.06150398
164	0xbe814d56	-0.25254315
165	0xbe8bf6bd	-0.27336684
166	0x3dce7f2e	0.10082851
167	0x3b996b6a	0.004681994
168	0xbd8c9a0b	-0.06865319
169	0xbd8cdb94	-0.06877819
170	0x3d168fb1	0.03675813
171	0x3e47a566	0.19496688
172	0xbd445c0f	-0.047939356
173	0x3e82b4bc	0.25528514
174	0x3e9f13dc	0.3106984
175	0x3e66e6f7	0.22549044
176	0xbd7081ee	-0.05871766
177	0x3c4e5b05	0.012594943
178	0x3ea74c15	0.32675233
179	0x3d17a071	0.037018243
180	0x3c124a92	0.008928912
181	0xbd29f15a	-0.041489936
182	0xbe545cec	-0.20738572
183	0xbd9198a7	-0.07109194
184	0xbdb40f29	-0.08791954
185	0xbe8a269b	-0.2698258
186	0x3c5e9b51	0.013586835
187	0xbe817efd	-0.25292197
188	0xbcf64f88	-0.03006722
189	0xbe079e7b	-0.13244049
190	0x3d9e8442	0.0774007
191	0x3c9bd83f	0.019024013
192	0xbd04ea46	-0.032449983
193	0xbd17c579	-0.03705356
194	0xbe107af4	-0.14109403
195	0x3d7d1ec6	0.061796926
196	0x3d68cc81	0.056835655
197	0xbe83059e	-0.25590223
198	0x3d148439	0.03625891
199	0x3dd2c90f	0.10292255
200	0x3e95f570	0.29288816
201	0x3dc69d33	0.09697952
202	0x3dfb6d57	0.12276714
203	0xbe0fabf1	-0.14030434
204	0x3e45f65b	0.19332258
205	0x3d635d4b	0.055508893
206	0x3dee9974	0.116503626
207	0xbda9249f	-0.08258938
208	0x3e1b714c	0.15179938
209	0x3d764808	0.060127288
210	0x3da7efd9	0.08200044
211	0x3d247e01	0.04015923
212	0xbcbf8dfc	-0.023383133
213	0x3c7c1102	0.015384914
214	0x3df3ab7b	0.11897942
215	0x3e050247	0.1298915
216	0x3b09a08c	0.0021000234
217	0xbd275fd2	-0.040862866
218	0xbde9d9d5	-0.11418501
219	0x3e26fa73	0.16306476
220	0x3d917a52	0.07103409
221	0x3cf9538e	0.03043535
222	0x3d068c52	0.032848664
223	0x3e4171a0	0.18891001
224	0xbd02634f	-0.03183299
225	0xbe74d854	-0.23910648
226	0x3dd85257	0.1056258
227	0xbe0baa9d	-0.13639303
228	0xbdcf18b4	-0.101121336
229	0x3d87386a	0.06602557
230	0xbe843ae5	-0.25826183
231	0xbea52ac1	-0.3225918
232	0xbe609a40	-0.21933842
233	0x3de74c3d	0.11293838
234	0x3d5a80fd	0.05334567
235	0xbe1bdc13	-0.1522067
236	0xbc3f4d0a	-0.011676082
237	0x3e3807fc	0.17971796
238	0xbe17dc0b	-0.14830033
239	0xbe42794e	-0.18991587
240	0xbd28ec8f	-0.041241225
241	0xbdc1a455	-0.09455172
242	0xbca68263	-0.020325845
243	0x3def0431	0.11670721
244	0x3d7b5945	0.06136443
245	0x3e2faeed	0.17156573
246	0x3e13a507	0.14418422
247	0x3b81d1b4	0.003961766
248	0x3e622f24	0.22088295
249	0x3e573fde	0.21020457
250	0x3a894831	0.0010473785
251	0xbcb65cbd	-0.022261018
252	0x3d912913	0.070879124
253	0xbcc60da9	-0.024176436
254	0xbe329b6a	-0.17442098
255	0xbc8cb899	-0.017177867

encoder.0.bias f4 [16]
0	0x3bb190a2	0.005418853
1	0x3d607b2c	0.054804966
2	0xbe5492c0	-0.20759106
3	0x3e29377c	0.16525072
4	0x3e08103a	0.1328744
5	0xbe5cef17	-0.2157558
6	0xbe288b93	-0.16459493
7	0x3e6386ab	0.2221934
8	0xbe07b893	-0.13254003
9	0x3dfcf0b7	0.123506
10	0x3d9b13b9	0.07572121
11	0xbe27c447	-0.16383468
12	0xbdfd58d1	-0.12370456
13	0x3d235e5d	0.039884914
14	0x3d517e0a	0.05114559
15	0x3de3842c	0.11109194

encoder.1.weight f4 [16]
0	0x3f80ac59	1.0052596
1	0x3f7c3b57	0.98528045
2	0x3f7a2077	0.9770579
3	0x3f7f836b	0.998099
4	0x3f81a069	1.0127078
5	0x3f79e9b6	0.9762224
6	0x3f855a80	1.0418243
7	0x3f7ecf3a	0.9953495
8	0x3f7773b5	0.9666093
9	0x3f85e496	1.0460384
10	0x3f809f4a	1.0048611
11	0x3f7b008a	0.980477
12	0x3f814927	1.0100449
13	0x3f6ee2f1	0.93315035
14	0x3f8214de	1.0162618
15	0x3f79e3e7	0.97613376

encoder.1.bias f4 [16]
0	0x3d0e5d49	0.034756932
1	0x3dce0492	0.100594655
2	0x3e47a1fa	0.19495383
3	0x3dbe0c81	0.09279729
4	0xbd159bbd	-0.036525477
5	0x3deebdfe	0.11657332
6	0x3e1d5963	0.1536613
7	0x3e1df50b	0.15425508
8	0xbdab7654	-0.08372179
9	0x3d81fffc	0.06347653
10	0x3db6a73f	0.089186184
11	0x3e1fc1e5	0.15601309
12	0x3dc5c23a	0.096561864
13	0xbe8b6264	-0.27223504
14	0x3bff3d41	0.0077892845
15	0x3c338e45	0.010959213

encoder.1.running_mean f4 [16]
0	0xbdbd8f32	-0.09255828
1	0x3e2d0393	0.16895895
2	0xbc5f7036	-0.013637593
3	0x3eb3ab87	0.35091802
4	0x3e0e1897	0.13876568
5	0xbe73db8a	-0.23814216
6	0xbea8c71d	-0.3296441
7	0x3d1e7b88	0.038692027
8	0xbdf818ce	-0.12114106
9	0x3e8c3e3c	0.2739123
10	0xbdbb4598	-0.09144133
11	0x3c8404cd	0.01611557
12	0xbe8233e3	-0.2543021
13	0x3e1344b0	0.14381671
14	0xbdf691c3	-0.120395206
15	0xbc2a1068	-0.010379888

encoder.1.running_var f4 [16]
0	0x4146655f	12.399749
1	0x4180ad38	16.08458
2	0x41fabf52	31.343418
3	0x41c8df83	25.109137
4	0x3f91abd4	1.1380563
5	0x4100e2a1	8.055329
6	0x41f669c9	30.801653
7	0x41cbcdfd	25.47558
8	0x41995132	19.164646
9	0x424cd968	51.21231
10	0x41c5cd1a	24.725147
11	0x41c98237	25.188581
12	0x41f2666e	30.300014
13	0x41dbada8	27.459793
14	0x4226576f	41.585384
15	0x41ba64cb	23.299215

encoder.4.weight f4 [8, 16, 3, 3]
0	0x3d2f3b83	0.042781364
1	0x3c364c21	0.011126549
2	0xbcb7b36f	-0.022424428
3	0x3d2c2c40	0.042034388
4	0xbdafb9ac	-0.08580336
5	0x3d170488	0.036869556
6	0x3bae7f9f	0.005325272
7	0xbd82d782	-0.06388761
8	0x3c053a7c	0.00813162
9	0xbb2d174e	-0.0026411596
10	0x3d3927b9	0.045203898
11	0xbcf235b1	-0.029566618
12	0x3c007bce	0.007842017
13	0x3d87236f	0.06598555
14	0x3d53d9ff	0.05172157
15	0x3d3e42d8	0.046450466
16	0x3c256577	0.010094992
17	0xbda3facf	-0.08006822
18	0x3c94f2e0	0.018182218
19	0x3cc0c904	0.023533352
20	0xbcf5b150	-0.029991776
21	0x3da380cd	0.07983551
22	0xbbade853	-0.005307236
23	0x3c6c4d7d	0.0144227715
24	0xbd810259	-0.06299276
25	0x3d1cfcfe	0.03832721
26	0xbd5ebebc	-0.054381117
27	0xbdd93d70	-0.106074214
28	0x3b2b9061	0.0026178586
29	0xbe02bbc8	-0.12766945
30	0xbc3408cc	-0.010988425
31	0xbdbe3050	-0.09286559
32	0xbd84b38b	-0.064795576
33	0xbdd12353	-0.10211816
34	0xbd8aa117	-0.06769007
35	0xbdca51d3	-0.09878888
36	0xbd42c9b8	-0.047555655
37	0xbc85a1e0	-0.01631254
38	0xbc1ce4dd	-0.00957605
39	0x3c49fd7a	0.0123285
40	0xbc25f106	-0.010128265
41	0x3c80acaa	0.015707333
42	0x3d6f211e	0.058381192
43	0x3ca834a7	0.02053292
44	0xbcaef621	-0.021357598
45	0xbb5d3e85	-0.0033759188
46	0xbd9ae55a	-0.075632766
47	0xbc500eeb	-0.012698869
48	0x3b39277c	0.0028252294
49	0xbc767661	-0.015042872
50	0x3d151850	0.03640014
51	0x3a8b2f39	0.0010618932
52	0x3d46e84d	0.048561383
53	0x3c17fdac	0.009276789
54	0x3c91392f	0.017727463
55	0x3bb656ad	0.005564532
56	0xbd6511db	-0.05592523
57	0xbdb10094	-0.086426884
58	0xbdd35985	-0.10319809
59	0x3d680640	0.056646585
60	0xba79dc7a	-0.000953145
61	0xb9f66293	-0.0004699422
62	0x3c346550	0.011010483
63	0x3da06749	0.078322
64	0x3d5e710d	0.054307032
65	0x3df65d71	0.12029541
66	0x3db88802	0.090103164
67	0x3e0905ba	0.13381091
68	0x3de5c839	0.1121983
69	0x3e2df4cc	0.16987914
70	0x3cce4f87	0.025184406
71	0x3e0b4818	0.1360172
72	0xbdd10edb	-0.102079116
73	0x3c0a0876	0.008424869
74	0xbd19ba42	-0.037531145
75	0xbb2ab86d	-0.0026049868
76	0xbd867d49	-0.06566865
77	0x3d47eca1	0.04880965
78	0xbd284419	-0.041080568
79	0xbd689e1b	-0.056791406
80	0xbc41743f	-0.0118075
81	0xbdd35048	-0.10318047
82	0xbdc27b0f	-0.09496128
83	0xbceea253	-0.029130137
84	0xbdb328cf	-0.08748018
85	0xbe110b9d	-0.14164586
86	0xbcac1105	-0.02100421
87	0xbd991cc0	-0.07476187
88	0xbd91f981	-0.07127667
89	0xbdcd3bc2	-0.100211635
90	0xbd39de05	-0.04537775
91	0xbd34f332	-0.04417724
92	0xbc1f245b	-0.009713258
93	0xbc0739a2	-0.008253487
94	0x3d547022	0.05186475
95	0xbd5c7e59	-0.053831432
96	0xbd68b2b5	-0.056811053
97	0x3c23dd43	0.010001483
98	0x3d8228bc	0.06355426
99	0x3d36768e	0.044546656
100	0x39ff6f5a	0.00048720354
101	0xbd9ddf41	-0.07708598
102	0xbbc4952d	-0.0059992285
103	0xbca9326a	-0.020653922
104	0xbd13a529	-0.03604618
105	0xbdd364c2	-0.103219524
106	0x3d1bab1e	0.038004987
107	0x3d126087	0.035736587
108	0x3d85eb9e	0.06539081
109	0x3db17454	0.08664766
110	0x3db64641	0.089001186
111	0x3d6df144	0.058091417
112	0x3ccae7c9	0.024768727
113	0x3d9698ee	0.07353388
114	0x3d8a0660	0.06739497
115	0x3d11d7a4	0.03560604
116	0xbcbd10f2	-0.02307937
117	0xbd63817d	-0.05554341
118	0xbe03cd40	-0.12871265
119	0xbdd1f236	-0.10251276
120	0xbdf8c8a3	-0.121476434
121	0xbb3685fd	-0.002785086
122	0xbd8e81ef	-0.069583766
123	0x3c6efee1	0.014587135
124	0xbdc955d6	-0.09830825
125	0xbd82496b	-0.063616596
126	0x3d2580ec	0.040406153
127	0x3d0d9109	0.034562144
128	0x3dc3313b	0.09530874
129	0x3d8b3978	0.06798071
130	0x3dd519ca	0.104053095
131	0x3c8eb7ad	0.017421568
132	0x3e133966	0.14377365
133	0x3e07f0c8	0.13275445
134	0x3c2a028d	0.010376585
135	0x3cc72b5f	0.024312673
136	0x3d8acf41	0.06777812
137	0xbccccba5	-0.024999449
138	0x3bb86e2c	0.005628368
139	0x3d19cb0a	0.03754715
140	0xbd8da89c	-0.06916925
141	0x3d716218	0.05893144
142	0x3d5eeffd	0.05442809
143	0xbc223faf	-0.009902879
144	0xbd2d0291	-0.042238776
145	0xbd46cd7a	-0.0485358
146	0xbd7b3703	-0.06133176
147	0x3d0fd4c7	0.03511503
148	0xbdc65408	-0.096839964
149	0x3c68eaa2	0.014216097
150	0xbd964738	-0.07337803
151	0xbdc6e0d6	-0.09710853
152	0x3c0c306b	0.008556466
153	0xbc84b603	-0.016200071
154	0xbc511435	-0.012761165
155	0xbd592493	-0.053013396
156	0xbdbedad3	-0.09319081
157	0xbd7001b2	-0.058595367
158	0xbe2edc47	-0.17076217
159	0xbd9a6726	-0.07539205
160	0xbdfcef9a	-0.12350388
161	0xbdbd8e9d	-0.09255717
162	0x3d2c7ac8	0.04210928
163	0xbd606713	-0.0547858
164	0xbd49b494	-0.04924448
165	0xbda05776	-0.07829182
166	0xbd694102	-0.056946762
167	0xbab5a540	-0.0013858452
168	0x3ce019d0	0.027356058
169	0xbd229c5c	-0.039699897
170	0xbb906b9b	-0.004407359
171	0xbd398ce8	-0.045300394
172	0x3c5958ea	0.013265828
173	0x3d388414	0.045047835
174	0x3cfb4076	0.030670386
175	0xbd7b9758	-0.06142363
176	0xbcdf6f3b	-0.027274719
177	0xbd434dc7	-0.047681596
178	0xbd9df8fc	-0.077135056
179	0xbda74d0e	-0.08168994
180	0xbcaed16b	-0.021340093
181	0xbc49d203	-0.012318137
182	0xbc8140c2	-0.01577795
183	0xbd440093	-0.04785211
184	0xbb28508b	-0.0025682773
185	0x3d4c2119	0.049836252
186	0xbd10ccfd	-0.035351742
187	0xbcf7eea9	-0.03026517
188	0x3d84d0bf	0.06485128
189	0x3cacd2df	0.021096645
190	0x3cc999e6	0.024609517
191	0xbd403e66	-0.046934508
192	0xbdbeb534	-0.093119055
193	0x3d0e2e5b	0.034712177
194	0xbb8ee6f7	-0.0043610292
195	0xbd13c6fc	-0.03607844
196	0x3ba434fa	0.005011198
197	0x3d2ab92c	0.0416805
198	0x3defdd3e	0.117121205
199	0x3d862748	0.06550461
200	0x3d2b05ac	0.041753456
201	0x3dd82e80	0.10555744
202	0x3e0decf1	0.13859917
203	0x3db4a379	0.088202424
204	0x3e47fc90	0.19529939
205	0x3d976255	0.07391802
206	0x3d5a5c8c	0.053310916
207	0x3dbee263	0.093205236
208	0x3d9be91e	0.07612823
209	0xb9c293a9	-0.0003711258
210	0x3dc1d658	0.09464711
211	0x3c268923	0.010164532
212	0x3d7e16c5	0.062033433
213	0x3dacc097	0.08435171
214	0x3b9db0ff	0.0048123593
215	0x3997e8a4	0.00028974295
216	0xbc8b06c9	-0.016971009
217	0x3d22e4c9	0.039768968
218	0x3cf19722	0.029491011
219	0xbd34d88f	-0.04415184
220	0xbc81b068	-0.015831187
221	0x3d3fa7b9	0.046790812
222	0x3d0df2b6	0.034655295
223	0x3d61a374	0.05508752
224	0xbd6f7463	-0.058460604
225	0xbcccfdbe	-0.025023337
226	0xbd7d0efe	-0.061781876
227	0xbd773dc9	-0.060361657
228	0xbda04143	-0.07824948
229	0xbb8ed436	-0.0043587936
230	0xbda0e800	-0.078567505
231	0xbd6fae15	-0.058515627
232	0x3c61cf63	0.013782355
233	0x3da1f528	0.07908088
234	0x3e078a1f	0.13236283
235	0x3da00114	0.07812706
236	0x3d5cd7d2	0.05391676
237	0x3c42f05a	0.011898125
238	0x3d268f6b	0.040664118
239	0xbc1c43f1	-0.009537683
240	0x3ddd488e	0.10804854
241	0x3cfdc5fe	0.0309782
242	0x3dd6d4d3	0.10489812
243	0xbc61bf6e	-0.013778551
244	0xbcce7d41	-0.02520621
245	0x3b8ba5a4	0.0042616893
246	0xbb61e305	-0.003446759
247	0xbd8e5743	-0.069502376
248	0x3a8f1333	0.0010915756
249	0xbd554987	-0.052072074
250	0xbc7822b0	-0.015144989
251	0x3d15b872	0.036552854
252	0xbc8efd38	-0.017454728
253	0x3dc39161	0.09549213
254	0x3dbe985a	0.093064025
255	0x3ce49323	0.027902192

encoder.4.bias f4 [8]
0	0xbd933905	-0.0718861
1	0xbd96b624	-0.07358959
2	0xbd0c808d	-0.034302283
3	0x3d62d6c7	0.05538061
4	0xbc5ab81b	-0.013349558
5	0xbd1278c1	-0.03575969
6	0x3c7c58a4	0.015401993
7	0x3d937c47	0.072014384

encoder.5.weight f4 [8]
0	0x3f6a18dc	0.9144418
1	0x3f66d1b3	0.90163726
2	0x3f79b6ea	0.9754473
3	0x3f7be249	0.9839216
4	0x3f932f00	1.1498718
5	0x3f688e24	0.9084189
6	0x3f8ac5cf	1.0841616
7	0x3f7c63ac	0.9858959

encoder.5.bias f4 [8]
0	0x3ab7502d	0.0013985686
1	0xbede66b4	-0.4343773
2	0xbcc69638	-0.024241552
3	0xbe16eac0	-0.14737988
4	0x3e54b84e	0.20773432
5	0xbe1dbb78	-0.15403545
6	0x3d370103	0.0446787
7	0x3e375bf4	0.17906171

encoder.5.running_mean f4 [8]
0	0xbdadfbcc	-0.08495292
1	0x3e2db376	0.1696299
2	0xbf1b5088	-0.60669756
3	0xbecff41a	-0.40615922
4	0x3e189f2a	0.14904466
5	0x3ecda64f	0.40165946
6	0xbeb59061	-0.35461715
7	0xbc86d47d	-0.016458744

encoder.5.running_var f4 [8]
0	0x40596fd2	3.39745
1	0x40459855	3.0874226
2	0x3f9685bf	1.1759566
3	0x40564f0d	3.3485749
4	0x40ee90d6	7.45518
5	0x407f4964	3.9888544
6	0x413f331d	11.949979
7	0x401407dc	2.3129797

encoder.8.weight f4 [4, 8, 3, 3]
0	0x3e15903f	0.14605807
1	0xbca5ac66	-0.020223808
2	0xbdb190bf	-0.08670186
3	0x3da10bcc	0.07863578
4	0x3d9db90b	0.0770131
5	0xbd05cc33	-0.032665443
6	0xbde6e37e	-0.112738594
7	0x3d43f505	0.04784109
8	0xbdb7515b	-0.08951064
9	0x3e048331	0.1294067
10	0x3de5bc09	0.112175055
11	0xbd701e1f	-0.058622476
12	0x3e983d6d	0.29734364
13	0x3e7b52f4	0.24543363
14	0xbd730438	-0.059330195
15	0x3df95399	0.12174148
16	0xbd95ad23	-0.07308414
17	0x3d1ae7e6	0.03781881
18	0x3e2132dc	0.15742058
19	0x3db35dfb	0.0875816
20	0x3ca6cf54	0.020362534
21	0x3df3e89c	0.11909601
22	0xbe28a361	-0.16468574
23	0xbe653372	-0.22382906
24	0x3dbdce03	0.09267809
25	0xbe04b7ce	-0.12960741
26	0x3baac1e5	0.0052111023
27	0x3e1ad8a3	0.15121703
28	0x3d95a944	0.073076755
29	0xbd5337ff	-0.051567074
30	0x3de2cfc8	0.110747874
31	0x3d8b4a7c	0.06801316
32	0x3e03c4ba	0.12868014
33	0xbd218ee4	-0.03944291
34	0x3c9f114b	0.019417426
35	0xbe3660c6	-0.17810354
36	0xbea4c773	-0.32183418
37	0xbeea6a0d	-0.45784035
38	0x3d9370dc	0.071992606
39	0xbd46fd81	-0.048581604
40	0xbecbaecc	-0.39781797
41	0x3dff7002	0.12472536
42	0x3eacd51c	0.3375634
43	0x3e3081e0	0.17237043
44	0x3ef28113	0.473641
45	0x3d369706	0.04457762
46	0x3c7fa67d	0.015603659
47	0x3cd861f5	0.026413897
48	0xbe1de9e4	-0.15421253
49	0xbdcff77d	-0.101546265
50	0x3c8e4f84	0.0173719
51	0x3c943c34	0.018095113
52	0x3df3f916	0.11912744
53	0x3cba2586	0.02272297
54	0x3ca35add	0.019940788
55	0x3d482a57	0.048868503
56	0x3c0d598d	0.008627308
57	0xbd362682	-0.044470318
58	0x3d3f7437	0.04674169
59	0x3dcb9a27	0.099415116
60	0xbdd46c2c	-0.10372195
61	0xbe069177	-0.13141428
62	0xba00c84b	-0.00049126585
63	0x3e1dd112	0.15411785
64	0x3c9c14b3	0.019052839
65	0xbe0db16b	-0.13837211
66	0x3daaf469	0.08347399
67	0xbe0832af	-0.13300584
68	0x3d94795a	0.072497085
69	0xbd93dcbc	-0.07219836
70	0xbe1b86c2	-0.15188125
71	0xbdceb7ca	-0.10093649
72	0xbe12755e	-0.14302585
73	0xbb9cd59b	-0.004786206
74	0xbd5d92a3	-0.05409492
75	0x3de2b92d	0.11070476
76	0x3df2f574	0.11863223
77	0xbd0ca455	-0.034336407
78	0xbcb30148	-0.021851197
79	0xbd6ab502	-0.05730153
80	0x3e36db95	0.17857201
81	0xbdd92219	-0.10602207
82	0xbe6a86cd	-0.22902985
83	0xbe45f2d2	-0.1933091
84	0xbbea9c84	-0.0071597714
85	0xbdea72de	-0.114476904
86	0xbdb4bbb7	-0.08824866
87	0xbdfdf8f6	-0.12401001
88	0xbbe81640	-0.0070827305
89	0xbe403c68	-0.18773043
90	0x3dbc4d9c	0.0919449
91	0x3da5a8f1	0.08088864
92	0x3c008af2	0.007845627
93	0xbe04c1ed	-0.12964602
94	0xbc2c869b	-0.010530139
95	0xbd8f3e9f	-0.06994366
96	0xbcee887a	-0.029117811
97	0xbcfbc935	-0.030735591
98	0x3d3d11c7	0.046159532
99	0xbe175021	-0.1477666
100	0xbe3d7719	-0.18502463
101	0xbe1989e9	-0.14994015
102	0xbe65917a	-0.22418776
103	0xbe131039	-0.14361657
104	0xbd0d58c6	-0.03450849
105	0xbe43622d	-0.1908042
106	0xbe66b0b6	-0.22528347
107	0xbca60791	-0.02026728
108	0x3d2663ad	0.040622402
109	0x3e6e7ac0	0.23289013
110	0x3e0a3780	0.13497734
111	0x3e66b818	0.22531164
112	0x3e48d3c2	0.19612029
113	0x3e25ac4c	0.16179007
114	0x3e490e84	0.19634444
115	0x3dfc1a3a	0.1230969
116	0x3e38c7ce	0.1804497
117	0xbdc67c37	-0.09691661
118	0xbcf4616e	-0.029831614
119	0xbd6daf30	-0.0580284
120	0xbd59d35a	-0.053180076
121	0xbd2dfce2	-0.042477496
122	0x3dc59531	0.09647597
123	0x3e17e883	0.1483479
124	0x3e0ed645	0.13948925
125	0x3d2b7a3d	0.041864622
126	0x3e18679f	0.14883278
127	0x3dd163d8	0.10224122
128	0x3e2b55c6	0.16731939
129	0x3db659bc	0.08903834
130	0xbdb5abe7	-0.088706784
131	0x3b94a5d7	0.004536371
132	0xbdddd780	-0.10832119
133	0xbe420184	-0.1894589
134	0xbe85a50b	-0.2610248
135	0x3d0f8c10	0.035045683
136	0x3cf47535	0.029841045
137	0xbdcd0afc	-0.10011861
138	0x3d0d3c21	0.03448117
139	0xbe1ed892	-0.15512303
140	0xbd092ecd	-0.0334919
141	0xbcb30c45	-0.021856437
142	0x3d09c77a	0.0336375
143	0x3ac67ac0	0.0015142784
144	0xbe1edaa5	-0.15513094
145	0xbcbc3569	-0.022974687
146	0x3c8a128c	0.016854547
147	0xbd1c151a	-0.03810606
148	0xbd44050a	-0.047856368
149	0xbdb34955	-0.08754221
150	0xbda8731f	-0.082250826
151	0xbe55ebc6	-0.20890722
152	0xbe30a6b0	-0.17251086
153	0x3dd5de9f	0.10442852
154	0x3d19d5ae	0.037557296
155	0x3d9e167d	0.07719133
156	0xbdbd307e	-0.09237765
157	0xbd8c9d76	-0.06865971
158	0x3dcfe166	0.10150413
159	0x3d04c5f5	0.03241535
160	0xbdd4a561	-0.10383106
161	0x3c48e8f9	0.012262576
162	0x3b77b15c	0.0037794923
163	0x3d416b69	0.047221575
164	0x3e29328c	0.16523188
165	0xbc35a175	-0.011085858
166	0xbc6d826f	-0.01449643
167	0x3dbd20a4	0.09234741
168	0xbd81f389	-0.06345279
169	0xbdf0280d	-0.11726389
170	0x3d9509c2	0.07277252
171	0x3c8f9d9e	0.017531212
172	0x3d020ecc	0.031752393
173	0xbd86b105	-0.065767325
174	0x3dd639e8	0.104602635
175	0x3da1c2b8	0.07898468
176	0xbd8840a9	-0.06652958
177	0x3da25220	0.0792582
178	0xbd830b20	-0.06398606
179	0xbda749e5	-0.08168391
180	0x3d9a6dbc	0.075404614
181	0x3d03766b	0.032095354
182	0x3de6c83b	0.1126866
183	0x3dcb745c	0.09934303
184	0xbdc70470	-0.09717643
185	0x3cb5f6e3	0.022212451
186	0x3d6d44a6	0.057926796
187	0xbde05e39	-0.109554715
188	0xbdae2da1	-0.08504797
189	0xbe08e1d2	-0.13367394
190	0xbdf2b14a	-0.118502215
191	0xbbdfc50f	-0.006828911
192	0xbe05c222	-0.13062337
193	0x3d2c10e5	0.0420083
194	0xbd891b62	-0.06694676
195	0xbd28b968	-0.041192442
196	0xbd883345	-0.06650404
197	0xbd97f7a2	-0.07420279
198	0x3e959348	0.2921393
199	0x3e7533fc	0.23945612
200	0x3e8e441e	0.27786344
201	0x3e7dc58a	0.24782386
202	0x3e1bc163	0.1521049
203	0x3e4ac715	0.19802506
204	0x3e93cc29	0.288667
205	0x3e85d5dc	0.26139724
206	0x3e1b9f58	0.15197504
207	0xbe0fce75	-0.14043601
208	0xbe6e6dc5	-0.23284061
209	0xbe5c9b3d	-0.21543594
210	0xbe7a85f8	-0.24465168
211	0xbe445598	-0.19173276
212	0xbe0869f6	-0.13321671
213	0xbe3acf0b	-0.18243043
214	0xbdc58360	-0.096441984
215	0xbe5a8eee	-0.21343586
216	0x3e56fdcd	0.20995255
217	0x3d560597	0.052251425
218	0x3e1c6721	0.15273716
219	0x3e4448fc	0.19168466
220	0x3dac7101	0.08419991
221	0x3ddd6c32	0.10811652
222	0x3d135725	0.03597178
223	0x3e30936e	0.1724374
224	0xbd5ab453	-0.053394627
225	0x3a1eec1e	0.0006062406
226	0xbd21fc46	-0.039547227
227	0xbde3c09a	-0.1112072
228	0xbdc01fc5	-0.093810596
229	0x3c572870	0.0131322
230	0xbd1a5700	-0.037680626
231	0x3d0c7c23	0.034298074
232	0xbbff69c9	-0.007794593
233	0xbc363dec	-0.011123162
234	0x3c3ad797	0.01140394
235	0xbd70add2	-0.058759518
236	0xbe2739c1	-0.16330625
237	0xbddb8aed	-0.10719857
238	0xbe22de98	-0.15905225
239	0xbd99745d	-0.07492898
240	0xbe24110b	-0.16022126
241	0xbdc291fc	-0.095005006
242	0x3c47cf3e	0.0121954065
243	0x3dadd881	0.084885605
244	0x3beeb135	0.0072843083
245	0x3c98858e	0.018618371
246	0xbd748c7c	-0.05970429
247	0xbd595ac6	-0.053065084
248	0xbd99b035	-0.07504312
249	0xbdebb247	-0.11508613
250	0xbcb89a31	-0.022534462
251	0x3d53a5ea	0.0516719
252	0x3d601441	0.054706816
253	0xbdc45c32	-0.09587897
254	0xbdd75337	-0.10513919
255	0x3bd03ac0	0.00635466

encoder.8.bias f4 [4]
0	0x3d1bb340	0.038012743
1	0x3db80545	0.0898538
2	0x3dd13eca	0.10217054
3	0xbcdf7857	-0.027279062

encoder.9.weight f4 [4]
0	0x3f5de370	0.8667517
1	0x3f84564e	1.0338838
2	0x3f752d51	0.9577227
3	0x3f8b9e89	1.0907756

encoder.9.bias f4 [4]
0	0x3dd9c76d	0.106337406
1	0x3f04c688	0.51865435
2	0x3ce5937b	0.028024426
3	0x3ebcfc98	0.36911464

encoder.9.running_mean f4 [4]
0	0x3dc1e95a	0.094683364
1	0x3e51c79b	0.204863
2	0xbe080f11	-0.13286997
3	0xbdee66c1	-0.116406925

encoder.9.running_var f4 [4]
0	0x3e87b662	0.26506335
1	0x406c7fe5	3.695306
2	0x40b9d859	5.8076596
3	0x405266bb	3.2875202

encoder.12.weight f4 [2, 4, 3, 3]
0	0xbcd71dc5	-0.026259312
1	0x3d1a4303	0.037661564
2	0xbd283e73	-0.04107518
3	0xbd2b5142	-0.04182554
4	0xbcf7f020	-0.030265868
5	0xba342374	-0.0006871738
6	0x3c108cfd	0.008822677
7	0x3ba36805	0.0049867653
8	0xbca0e328	-0.019639567
9	0xbccac91d	-0.024754101
10	0xbe150877	-0.1455401
11	0x3e0242bb	0.12720768
12	0xbe3b1055	-0.18267949
13	0xbed60572	-0.4180103
14	0xbc953791	-0.018214973
15	0x3e073be9	0.13206448
16	0x3b328f61	0.0027246105
17	0x3e3eb1ff	0.18622588
18	0x3e5f2653	0.21791963
19	0x3e85c928	0.26130033
20	0x3db5f21f	0.088840716
21	0x3eacc7eb	0.33746275
22	0x3ea06539	0.31327227
23	0x3ea6d55d	0.32584658
24	0x3d00dd1e	0.031460874
25	0x3d0e48ef	0.034737524
26	0x3c99c4e8	0.01877065
27	0x3e18c30f	0.14918159
28	0xbe5b4cea	-0.21416059
29	0x3e5d0b42	0.21586326
30	0xbe4245db	-0.1897196
31	0xbf450370	-0.7695837
32	0xbecdac5c	-0.40170562
33	0x3df0bef8	0.117551744
34	0xbeb487e5	-0.3525993
35	0x3e710268	0.23536074
36	0x3bd86b5c	0.006604595
37	0x3d2cc20f	0.042177256
38	0x3d187590	0.03722149
39	0xbe4ec8de	-0.20193812
40	0xbf1949d3	-0.5987827
41	0xbe0cc74c	-0.137479
42	0xbe067dff	-0.13134001
43	0xbeab38f8	-0.334419
44	0xbd0e92e2	-0.034808047
45	0xbe3ae8bd	-0.18252845
46	0x3e521b75	0.20518287
47	0xbe244f95	-0.16045983
48	0x3d4ec218	0.05047807
49	0x3f080a77	0.5314097
50	0x3c99dcb4	0.018781997
51	0x3e47832d	0.19483633
52	0x3f183174	0.5945046
53	0x3e365e70	0.17809463
54	0x3b18f2da	0.002333811
55	0x3e27d9d8	0.16391695
56	0x3d5f60a4	0.054535523
57	0x3e17e006	0.14831552
58	0x3e155459	0.14582957
59	0x3d6054f1	0.054768506
60	0x3d9005ae	0.07032333
61	0x3daeeb08	0.085409224
62	0x3dbffd63	0.093745016
63	0x3e0ebdac	0.13939542
64	0xbd629374	-0.055316404
65	0xbc48538a	-0.0122269485
66	0xbd1eda41	-0.038782362
67	0xbe68ebed	-0.22746249
68	0xbd103a5e	-0.035211913
69	0xbbdaeadb	-0.006680829
70	0xbdf68953	-0.12037911
71	0xbcfda623	-0.03096301

encoder.12.bias f4 [2]
0	0x3d918fbc	0.07107493
1	0x3dc01942	0.093798175

encoder.13.weight f4 [2]
0	0x3e5e2a15	0.2169574
1	0x3e668cfc	0.22514719

encoder.13.bias f4 [2]
0	0x3faccfb5	1.3500887
1	0x3f67e97a	0.9059063

encoder.13.running_mean f4 [2]
0	0xbecbdcb3	-0.39816818
1	0x3f35ba5f	0.70987505

encoder.13.running_var f4 [2]
0	0x40359895	2.8374379
1	0x4055be03	3.3397224

decoder.1.weight f4 [4, 2, 3, 3]
0	0xbd85c7ea	-0.06532271
1	0xbd4c8f9a	-0.049941637
2	0xbe3af3de	-0.1825709
3	0x3e45adeb	0.19304626
4	0x3d8eb8da	0.069688514
5	0xbe95f0f7	-0.29285404
6	0xbda65044	-0.08120778
7	0x3e06d551	0.13167311
8	0xbe2c7322	-0.16840795
9	0xbc57184b	-0.0131283505
10	0x3e5e881a	0.21731606
11	0xbe288153	-0.16455583
12	0x3e96d746	0.29461116
13	0x3f147a45	0.5799907
14	0x3be450e4	0.0069676507
15	0x3d0491ae	0.032365493
16	0x3ec64698	0.38725734
17	0xbdb22081	-0.08697606
18	0xbdbd768a	-0.09251125
19	0x3e1b65dd	0.15175577
20	0xbe0a3c10	-0.13499475
21	0x3e01854c	0.12648505
22	0x3f90b2df	1.1304587
23	0x3dcacc8a	0.09902294
24	0xbe05a401	-0.13050844
25	0x3e34d075	0.17657645
26	0xb71897aa	-9.095218e-06
27	0x3d94dc6c	0.07268605
28	0xbe0abd0f	-0.13548683
29	0xbd239ebd	-0.039946306
30	0xbcf45875	-0.029827336
31	0x3ec4b260	0.3841734
32	0xbe677d84	-0.22606474
33	0x3cc743f0	0.024324387
34	0xbe386f1c	-0.18011135
35	0xbb387bb8	-0.0028149914
36	0x3e32bb18	0.17454183
37	0xbe4f9013	-0.20269804
38	0x3d01f1a7	0.0317246
39	0xbd71b95c	-0.059014663
40	0x3ce3952e	0.027781095
41	0x3d2143e2	0.03937138
42	0x3def3d29	0.11681587
43	0xbe5df216	-0.2167438
44	0x3d2fae20	0.042890668
45	0xbe0b78b8	-0.1362027
46	0x3e47e977	0.19522654
47	0x3e0a946d	0.13533182
48	0xbe0f4378	-0.13990581
49	0x3f40b22c	0.7527187
50	0x3f33b6ef	0.7020101
51	0xbe6d9a40	-0.23203373
52	0x3d0ea1da	0.034822322
53	0x3ddb9bd8	0.10723084
54	0x3d8330cf	0.06405794
55	0xbe748ec3	-0.23882584
56	0xbc8b89c5	-0.017033467
57	0xbe1b0574	-0.15138799
58	0xbf5e06b9	-0.8672901
59	0xbe8b67e0	-0.27227688
60	0x3db0f92e	0.08641277
61	0xbe373272	-0.17890337
62	0x3d9e9e8d	0.07745085
63	0x3af101b3	0.0018387347
64	0x3daaa38c	0.08331975
65	0xbd94f626	-0.072735116
66	0x3dd00dfb	0.101589166
67	0x3e97a8b4	0.29620898
68	0xbe26efb9	-0.16302384
69	0xbe39e047	-0.18151961
70	0xbd85a0da	-0.065248206
71	0x3e2196a8	0.15780127

decoder.1.bias f4 [4]
0	0xbda38535	-0.079843916
1	0xbe21999e	-0.15781257
2	0x3db0e523	0.08637454
3	0x3e27cac6	0.16385946

decoder.2.weight f4 [4]
0	0x3f34ef9b	0.7067811
1	0x3f5adca8	0.85492945
2	0x3ee82fe0	0.45349026
3	0x3f4a38ac	0.78992724

decoder.2.bias f4 [4]
0	0x3ec23a12	0.3793493
1	0x3e8b861c	0.27250755
2	0x3fb3bc27	1.4041795
3	0x3ebb5852	0.3659082

decoder.2.running_mean f4 [4]
0	0x3f046761	0.51720244
1	0x3fc7945a	1.5592148
2	0x3fa9e99b	1.3274416
3	0xbfdd195b	-1.7273363

decoder.2.running_var f4 [4]
0	0x3ddfe1eb	0.10931762
1	0x3da658de	0.08122419
2	0x3e016c19	0.12638892
3	0x3dce3f28	0.1007064

decoder.5.weight f4 [8, 4, 3, 3]
0	0x3b9f4b73	0.004861289
1	0xbde729b4	-0.11287251
2	0x3d2902d3	0.04126246
3	0xbe301679	-0.17196073
4	0xbe8c0c34	-0.2735306
5	0xbe304376	-0.17213234
6	0xbd938cef	-0.07204615
7	0xbd08a18c	-0.033357188
8	0xbe5c2e66	-0.21502075
9	0x3d93a16c	0.07208523
10	0x3d0cd992	0.03438718
11	0x3db6dc95	0.089287914
12	0xbdc954a2	-0.098305956
13	0x3d665179	0.056230042
14	0xbb668cab	-0.003517906
15	0xbdc2ae59	-0.095059104
16	0xbda12068	-0.07867509
17	0xbcf70923	-0.030155724
18	0x3d9b4909	0.0758229
19	0xbd954f86	-0.072905585
20	0xbd9453f0	-0.07242572
21	0xbdd95a9d	-0.10612986
22	0xbe1dc075	-0.15405448
23	0xbde3a64d	-0.11115704
24	0x3cb1c2da	0.021699358
25	0xbddfbc81	-0.10924626
26	0x3d812d94	0.063075215
27	0x3c0bc35e	0.008530466
28	0x3ddf19a1	0.1089356
29	0x3dbf7417	0.09348314
30	0xbd1352da	-0.035967685
31	0xbdac8864	-0.08424452
32	0xbdaf9c69	-0.08574755
33	0xbd70cbbb	-0.058788043
34	0xbd9b1300	-0.07571983
35	0xbd910c5f	-0.07082438
36	0xbd34b1e1	-0.04411495
37	0xbb7a69f7	-0.0038210133
38	0xbd7eb82c	-0.06218736
39	0xbd6ea4e6	-0.05826273
40	0xbda04e08	-0.07827383
41	0x3e12c75b	0.1433386
42	0x3e21ce74	0.15801412
43	0xbd0f764d	-0.03502493
44	0x3dc86f5f	0.09786867
45	0xbe176dbd	-0.14787956
46	0x3ddd4c5e	0.108055815
47	0x3de04482	0.10950567
48	0xbe693d6e	-0.2277734
49	0x3bc7f418	0.0061020963
50	0xbd8b7e08	-0.06811148
51	0xbe1c01aa	-0.1523501
52	0xbde87c8e	-0.11351882
53	0xbdb70c7c	-0.08937928
54	0x3b83d178	0.0040227734
55	0x3dd29dee	0.10284029
56	0x3d9679f6	0.07347481
57	0xbe12dfd3	-0.14343195
58	0xbda4f97c	-0.08055398
59	0x3e47b298	0.19501722
60	0xbdc48c9d	-0.09597132
61	0x3cee5aa8	0.029095963
62	0xbc611162	-0.013737055
63	0xbe1e518b	-0.15460794
64	0xbdc5cef7	-0.09658616
65	0x3d866844	0.06562856
66	0x3dc4266a	0.095776394
67	0x3ea4bdff	0.32176206
68	0x3ea16d5a	0.3152874
69	0xbdd682bb	-0.104741536
70	0x3e3dd4b8	0.18538177
71	0x3d752cf3	0.05985732
72	0x3da10415	0.07862107
73	0x3a4807f9	0.00076305825
74	0xbdc7640d	-0.0973588
75	0x3e22fabd	0.15915962
76	0x3ec11425	0.37710682
77	0x3d80ed12	0.062952176
78	0x3e02b966	0.12766036
79	0x3e7d59a4	0.24741226
80	0xbc279d18	-0.010230325
81	0xbe12f4fa	-0.14351264
82	0xbc7ab225	-0.015301262
83	0xbc814bff	-0.015783308
84	0x3e4522a3	0.19251494
85	0xbbf3c8e4	-0.0074397195
86	0xbdcfc13b	-0.10144278
87	0x3e561355	0.20905812
88	0x3e16e442	0.14735511
89	0xbd8dd920	-0.06926179
90	0xbd94e00a	-0.072692946
91	0x3d5930ab	0.05302493
92	0xbe28b006	-0.16473398
93	0x3ea614f3	0.32437858
94	0xba5c09e3	-0.0008393807
95	0xbe52e238	-0.20594108
96	0x3ed1fa20	0.41011143
97	0x3dcd5040	0.10025072
98	0x3ded1180	0.115756035
99	0xbc832aad	-0.01601156
100	0xbdac4de2	-0.084132925
101	0xbe488d77	-0.19585215
102	0x3e1fe91c	0.15616268
103	0x3e78158f	0.24226974
104	0xbe33d80f	-0.17562889
105	0x3e508388	0.20362675
106	0x3e1c3ecc	0.1525833
107	0xbc633b5e	-0.013869135
108	0x3dc84df8	0.09780496
109	0xbe52d953	-0.20590715
110	0x3cb1bb34	0.02169571
111	0x3c92f232	0.017937753
112	0xbe119c12	-0.14219692
113	0xbd8f00af	-0.06982552
114	0xbd1ef222	-0.038805135
115	0xbce3cdde	-0.027808126
116	0xbd97dae3	-0.07414796
117	0xbc408f87	-0.01175297
118	0xbcb7c432	-0.02243242
119	0xbcf392c3	-0.029733067
120	0x3d97523d	0.073887326
121	0xbda7c0ba	-0.081910565
122	0x3d0425fd	0.03226279
123	0x3de1d1b2	0.11026324
124	0x3e04df67	0.12975846
125	0xbd28dd67	-0.04122677
126	0xbe0e8cb4	-0.13920861
127	0xbe491a78	-0.19639003
128	0xbe7cbd95	-0.24681695
129	0xbe8d80fd	-0.27637473
130	0xbedf3d6b	-0.43601546
131	0xbd8a2918	-0.06746119
132	0xbe0def15	-0.13860734
133	0xbea04e5f	-0.31309792
134	0xbe50d7c5	-0.2039481
135	0xbe291419	-0.16511573
136	0xbcd3e041	-0.025863769
137	0x3d4259fe	0.047449104
138	0x3d97c8d6	0.07411353
139	0xbde88a89	-0.113545485
140	0xbc2d2849	-0.010568687
141	0x3c6477f6	0.013944617
142	0x3d854598	0.065074146
143	0xbd99f6d5	-0.075177826
144	0xbe075ded	-0.13219424
145	0xbd8b205c	-0.067932814
146	0xbd86644f	-0.06562101
147	0xbdf5abac	-0.119956344
148	0xbcfe0408	-0.031007782
149	0xbe467545	-0.19380672
150	0x3c8fd19f	0.01755601
151	0xbdc58e8d	-0.0964633
152	0xbd0307f2	-0.03199
153	0xbc38c0c2	-0.011276426
154	0xbdcb9df1	-0.09942234
155	0xbbb6bea1	-0.005576924
156	0xbe282d29	-0.16423477
157	0xbe4919ca	-0.19638744
158	0xbdce2703	-0.10066035
159	0xbe804235	-0.25050512
160	0xbe18b378	-0.14912212
161	0x3d5cd1d7	0.053911056
162	0x3e003021	0.1251836
163	0x3e2158e2	0.15756562
164	0x3d5e65e4	0.05429639
165	0xbe6fc313	-0.23414259
166	0x3bbc390f	0.0057441066
167	0x3cdcb376	0.026941042
168	0xbdea17be	-0.1143031
169	0xbd741741	-0.05959249
170	0xbcfde8e9	-0.03099485
171	0x3e2f206b	0.1710221
172	0x3eb35d52	0.35032135
173	0x3cdda0aa	0.02705415
174	0x3e3ae04c	0.18249625
175	0x3ec36b55	0.38167825
176	0x3dbcd3ba	0.09220071
177	0x3d966ad0	0.073445916
178	0x3e4fc355	0.20289357
179	0xbe2278f9	-0.1586646
180	0xbc4d11ea	-0.012516478
181	0x3dd0b4e5	0.10190753
182	0x3e3315b5	0.1748875
183	0xbd704ee6	-0.058668993
184	0xbd189805	-0.037254352
185	0x3dd08762	0.10182072
186	0xbe2e585c	-0.17025894
187	0x3d9ebdf7	0.07751077
188	0xbd2aba98	-0.041681856
189	0x3d2c2d70	0.04203552
190	0xb842f4f1	-4.6481324e-05
191	0x3c0486f7	0.008088819
192	0xbe231c30	-0.15928721
193	0x3dfabde5	0.12243251
194	0x3d599199	0.05311737
195	0xbe034b59	-0.12821712
196	0x3cdd73c5	0.027032742
197	0xbdc70064	-0.097168714
198	0x3dcc4947	0.09974914
199	0x3ea3ada7	0.31968424
200	0x3c4bec74	0.012446512
201	0x3e0342ec	0.12818497
202	0x3f14958a	0.5804068
203	0x3eb7a25a	0.35866052
204	0xbe971dc1	-0.29514888
205	0x3e55772c	0.20846242
206	0xbdc360ea	-0.09539969
207	0xbc49e6e0	-0.012323111
208	0xbb7fc718	-0.0039028581
209	0xbc75788e	-0.014982356
210	0xbd1153dd	-0.03548037
211	0x3e7a695c	0.24454254
212	0x3e00cdc0	0.12578487
213	0xbe616727	-0.22012006
214	0xbd624c5a	-0.055248596
215	0xbd052938	-0.032510012
216	0xbd547a88	-0.051874667
217	0x3dfccda7	0.123439126
218	0xbc23d57e	-0.009999631
219	0xbc850554	-0.016237892
220	0x3c37e2e4	0.0112235285
221	0xbccd1e34	-0.025038816
222	0x3d9a4d94	0.07534328
223	0x3aca2ace	0.0015424134
224	0x3e01bd6a	0.12669912
225	0x3e217617	0.15767704
226	0x3e3ffa97	0.18747936
227	0x3d5a8217	0.05334672
228	0x3e283681	0.16427042
229	0x3e71642b	0.23573367
230	0x3e77853d	0.2417192
231	0x3e5a0f7f	0.21294974
232	0x3e51f6ff	0.20504378
233	0x3e3415a5	0.17586382
234	0xbdbce626	-0.09223585
235	0x3e3ccdba	0.18437853
236	0x3e40058d	0.18752117
237	0x3d84821e	0.064701304
238	0x3e430bc9	0.19047464
239	0x3e340afd	0.17582317
240	0xbe232224	-0.15930992
241	0x3de93df2	0.11388768
242	0xbd19ca74	-0.03754659
243	0x3d6b9bf3	0.05752177
244	0xbd614a8d	-0.055002738
245	0xbe1c52b8	-0.1526593
246	0xbe523675	-0.20528586
247	0xbdf00733	-0.11720123
248	0x3dcae6b2	0.09907283
249	0xbe573033	-0.2101448
250	0xbe3cd31a	-0.18439904
251	0x3cc77537	0.024347885
252	0xbdd16df7	-0.10226052
253	0xbdbff247	-0.093723826
254	0xbdc67438	-0.09690136
255	0xbd9dca23	-0.0770457

decoder.5.bias f4 [8]
0	0xbdf89c55	-0.12139193
1	0xbe2a81f2	-0.16651133
2	0x3d4ff261	0.05076826
3	0x3db21667	0.08695679
4	0xbd52a481	-0.051426414
5	0x3e25c636	0.16188893
6	0x3caf6977	0.021412594
7	0x3dca3c24	0.09874752

decoder.6.weight f4 [8]
0	0x3f841086	1.0317543
1	0x3f575aeb	0.84123105
2	0x3f7f815f	0.9980678
3	0x3f8d5354	1.1041055
4	0x3f6c557a	0.92317927
5	0x3f80025f	1.0000724
6	0x3f8d4e75	1.1039568
7	0x3f82a360	1.0206108

decoder.6.bias f4 [8]
0	0x3c5ccbec	0.013476353
1	0xbd8e1350	-0.06937277
2	0xbd845ccc	-0.06463012
3	0x3e8dfa4e	0.2773003
4	0x3e587d08	0.21141446
5	0x3e1b24a3	0.15150695
6	0x3d88741f	0.06662773
7	0x3de2ee91	0.11080659

decoder.6.running_mean f4 [8]
0	0xbfaea2b1	-1.36434
1	0x3d471465	0.048603434
2	0x3fbb1a82	1.4617465
3	0xc03c11f4	-2.9385958
4	0xbe89b730	-0.26897573
5	0x3fffeb07	1.99936
6	0x3fb263b6	1.3936679
7	0xbeaa0bf5	-0.33212247

decoder.6.running_var f4 [8]
0	0x3ebd2fe9	0.36950615
1	0x3ededd11	0.43528035
2	0x3f1bb760	0.60826683
3	0x3f604dae	0.8761853
4	0x3fbd2d84	1.4779515
5	0x3edb1e3f	0.42796513
6	0x3fcf56f0	1.6198406
7	0x3f34a28e	0.7056054

decoder.9.weight f4 [16, 8, 3, 3]
0	0xbe20c183	-0.15698819
1	0xbdd90f8a	-0.10598667
2	0xbd516174	-0.05111833
3	0xbe44cf3a	-0.19219676
4	0xbd0d3b7c	-0.034480557
5	0xbd29eac2	-0.041483648
6	0xbe4a12aa	-0.19733682
7	0xbdd8bfc1	-0.10583449
8	0xbe13eb8e	-0.14445326
9	0x3d9aee14	0.07564941
10	0x3dea9de9	0.114559
11	0x3dd6b360	0.10483432
12	0x3e0a9468	0.13533175
13	0x3a1cc5a7	0.000598038
14	0xbdae0673	-0.08497324
15	0xbd97d1cb	-0.07413062
16	0x3c80388b	0.015651962
17	0x3d74d254	0.059770897
18	0xbc4519cf	-0.012030079
19	0x3db9c3d3	0.09070554
20	0xbbc76bf8	-0.006085869
21	0xbce3907f	-0.027778862
22	0xbcc04602	-0.023470882
23	0xbd14a082	-0.036285885
24	0xbd9f37fb	-0.07774349
25	0xbda9da59	-0.082936
26	0xbd92d47f	-0.07169437
27	0xbd8a142a	-0.06742127
28	0xbe07359b	-0.13204043
29	0xbdaa8dba	-0.083278134
30	0xbdef8ad2	-0.116964
31	0xbe0f1a61	-0.13974907
32	0xbd377b3e	-0.044795267
33	0xbd53e305	-0.051730175
34	0xbd4448ca	-0.04792098
35	0xbcba0d8a	-0.022711534
36	0xbd58a92b	-0.052895706
37	0x3dcfffcc	0.10156211
38	0x3d7e0b63	0.062022578
39	0x3d49ff1a	0.04931555
40	0x3df62c2e	0.12020145
41	0x3d4a37fc	0.049369797
42	0x3d616007	0.05502322
43	0x3c9debdf	0.019277511
44	0x3cb85099	0.02249937
45	0x3e2405c6	0.16017827
46	0x3e7000f3	0.23437862
47	0xb9b24fae	-0.00034010172
48	0x3dba6ccf	0.09102785
49	0x3dd682e5	0.10474185
50	0x3d3839ad	0.04497688
51	0xbcc57671	-0.024104329
52	0x3dd973b6	0.10617773
53	0xbcf865a4	-0.030321904
54	0x3d089ef1	0.033354703
55	0xbadde360	-0.0016928725
56	0x3dc0089c	0.09376642
57	0x3d3af19d	0.045640577
58	0x3ce6af86	0.028159868
59	0x3d3ce44d	0.046116162
60	0xbd41d6bf	-0.04732394
61	0x3b5fde36	0.0034159548
62	0xbd847d7c	-0.06469247
63	0xbdb74e75	-0.08950511
64	0xbd60d35d	-0.05488907
65	0xbd995f30	-0.07488859
66	0xbc9d4585	-0.019198189
67	0x3dbc7f06	0.09203915
68	0xbdb40676	-0.08790295
69	0x3de96cd9	0.11397714
70	0x3d9e801b	0.07739278
71	0xbc89406d	-0.016754353
72	0xbe12d09d	-0.14337392
73	0xbdc60314	-0.09668556
74	0xbd8a2737	-0.06745761
75	0xbc60d2f3	-0.013722169
76	0xbdd9c94b	-0.10634097
77	0xbe21c042	-0.15795997
78	0xbc885f46	-0.016646992
79	0x3cb9a90d	0.022663618
80	0xbca74970	-0.02042076
81	0xbd0c2fc7	-0.03422525
82	0xbcf28a0e	-0.029606845
83	0xbd738a15	-0.059457857
84	0x3c9c92d1	0.019112976
85	0x3dcc624d	0.09979687
86	0x3d663b9d	0.056209195
87	0x3dba1afa	0.090871766
88	0x3d987e4c	0.07445964
89	0xbbe27c08	-0.0069117583
90	0x3df3236c	0.118719906
91	0xbc1794b1	-0.009251759
92	0xbd3d592d	-0.046227623
93	0x3e50ffe2	0.20410112
94	0x3e744561	0.23854591
95	0xbc46b6f3	-0.012128579
96	0x3e1e47b1	0.15457036
97	0x3e688d21	0.22710086
98	0x3d8c409d	0.068482615
99	0x3bd388ce	0.0064555174
100	0xbe2b3ba2	-0.16721967
101	0xbe0fda1a	-0.14048043
102	0xbdec8c5b	-0.11550208
103	0x3d3a5e83	0.04550029
104	0xbe28087b	-0.16409485
105	0xbd005813	-0.031333994
106	0xbe02b5e0	-0.12764692
107	0xbd8edc3a	-0.06975599
108	0xbd8f1cc3	-0.06987908
109	0x3dbfa793	0.09358134
110	0x3d46a01c	0.048492536
111	0xbe0359f8	-0.12827289
112	0x3cf99153	0.030464804
113	0xbdd539c8	-0.104114115
114	0xbe118261	-0.14209892
115	0xbce7ff55	-0.028319994
116	0x3d8698d9	0.06572122
117	0xbdfe7aa7	-0.12425738
118	0xbcf8d569	-0.0303752
119	0xbcfb3c4f	-0.030668406
120	0x3d84965c	0.06473991
121	0x3d844a43	0.06459477
122	0xbc84d82f	-0.016216366
123	0xbd4034f6	-0.046925507
124	0x3e0d9fe6	0.13830528
125	0x3e255436	0.16145405
126	0xbcc8490c	-0.024448894
127	0xbd395445	-0.04524638
128	0xbcaab325	-0.020837376
129	0x3daf6dbb	0.08565851
130	0x3de0c597	0.10975187
131	0xbd030b16	-0.031992994
132	0xbe074f77	-0.13213907
133	0x3c9f207a	0.019424666
134	0x3c8295a6	0.015940499
135	0xba2c3521	-0.0006569196
136	0xbdb51d2b	-0.08843454
137	0x3d8a1f6e	0.06744276
138	0xbdf1f41d	-0.11814139
139	0x3d5a7cbe	0.05334162
140	0xbd8b41e4	-0.06799677
141	0xbdfa62e0	-0.1222589
142	0x3cee0f49	0.029060023
143	0x3d2cf4c0	0.0422256
144	0x3dd0d5b9	0.10197014
145	0x3df4f740	0.11961222
146	0x3d3acad9	0.045603607
147	0x3e036f26	0.12835369
148	0x3e3e469c	0.18581623
149	0x3b8c8dbb	0.0042893565
150	0xbc09d9af	-0.008413716
151	0xbd0314f9	-0.032002423
152	0xbd627575	-0.055287797
153	0xbc05001a	-0.0081177
154	0xbdcef6c4	-0.101056606
155	0x3d51e59d	0.051244367
156	0xbdfe87fa	-0.12428279
157	0xbdf26cba	-0.11837144
158	0xbb7d591f	-0.0038657857
159	0x3d8fd012	0.07022108
160	0x3d712e3f	0.058881994
161	0x3b1c41ab	0.0023842852
162	0xbb1276fd	-0.0022348755
163	0xbc29bbca	-0.010359714
164	0xbd224194	-0.03961332
165	0x3d650ebb	0.05592225
166	0x3d019c46	0.031643175
167	0x3be5e2f9	0.0070155826
168	0xbd67a6f1	-0.056555692
169	0xbd482e19	-0.048872087
170	0xbd94c8a7	-0.07264834
171	0x3d40bae3	0.04705323
172	0x3e502419	0.2032627
173	0x3d0fc0ae	0.035095863
174	0x3d367f58	0.04455504
175	0x3df8061f	0.121105425
176	0x3c4ea0c5	0.012611573
177	0xbcf695dc	-0.030100755
178	0x3d75a817	0.059974756
179	0x3db6f4ac	0.08933386
180	0x3c8ccd18	0.01718764
181	0xbdc5ee4d	-0.09664593
182	0xbd90b9ab	-0.07066663
183	0xbd496c5d	-0.04917561
184	0xbde8a6e1	-0.113599546
185	0xbd34f46c	-0.04417841
186	0x3d9fbc2c	0.07799563
187	0xbdb3487b	-0.08754059
188	0x3daae896	0.083451435
189	0xbda46a09	-0.08028037
190	0xbdb68442	-0.08911945
191	0xbd98d992	-0.07463373
192	0x3da409ae	0.08009659
193	0xbccd67f4	-0.025073983
194	0x3d1dcce3	0.038525473
195	0x3cfb1aeb	0.030652484
196	0xbd32fa85	-0.043695945
197	0x3dd209f8	0.10255808
198	0xbda357b2	-0.07975711
199	0xbd978c1a	-0.07399769
200	0xbdb00b41	-0.085958965
201	0x3afd71b2	0.0019336252
202	0x3cd1b753	0.025600111
203	0xb9f18433	-0.00046065598
204	0xbd9e2344	-0.0772157
205	0xbde0308f	-0.10946762
206	0x39b59525	0.00034634132
207	0xbced7297	-0.028985305
208	0x3e095d97	0.13414608
209	0x3d6949ae	0.056955032
210	0x3d802dbf	0.062587254
211	0x3d4de411	0.05026633
212	0xbda14417	-0.07874315
213	0xbe01e648	-0.12685502
214	0xbde1ba4f	-0.11021864
215	0xbb8b42fe	-0.0042499295
216	0x3daddecc	0.08489761
217	0xbc4fabd1	-0.012675242
218	0x3df8ce56	0.121487305
219	0x3d86b54d	0.06577549
220	0xbd2a6d1c	-0.04160796
221	0xbb9157f7	-0.004435535
222	0x3c99c7ec	0.018772088
223	0x3de90eed	0.113798
224	0x3bac2380	0.0052532554
225	0xbd96bd11	-0.0736028
226	0x3dac2f42	0.08407451
227	0x3e072e36	0.13201222
228	0x3ba7df1f	0.0051230337
229	0x3dfbf3be	0.123023495
230	0x3e38dbf7	0.1805266
231	0x3d0dadbd	0.034589518
232	0xbbe0bc73	-0.0068584024
233	0x3bc4ee9a	0.006009889
234	0xbddd5957	-0.10808056
235	0x3c634b9f	0.01387301
236	0xbcd4480e	-0.025913265
237	0xbd823386	-0.063574836
238	0xbc94c96b	-0.01816245
239	0xbd36a052	-0.044586487
240	0xbc0dd089	-0.008655676
241	0x3dea1d94	0.11431423
242	0xbcb7f624	-0.022456236
243	0x3d87e978	0.066363275
244	0x3d3330e4	0.043747798
245	0x3d3e270c	0.046423957
246	0x3bc478b5	0.0059958347
247	0x3b91acab	0.0044456325
248	0xbbc74bd6	-0.0060820384
249	0x3a387bc3	0.0007037485
250	0xbab42914	-0.0013745152
251	0x3ce346f8	0.027743801
252	0x3da5d657	0.08097523
253	0x3e2f3eb1	0.17113759
254	0x3dae81b7	0.08520835
255	0x3dd15e58	0.10223073

decoder.9.bias f4 [16]
0	0x3ae2dce1	0.0017308259
1	0x3dba3940	0.09092951
2	0xbd6f9a32	-0.05849666
3	0xbd0deae7	-0.03464785
4	0x3b731d10	0.003709618
5	0xbdcc95f4	-0.09989539
6	0xbd9be63c	-0.07612273
7	0x3daafabc	0.08348605
8	0xbb471376	-0.003037659
9	0x3d6b9392	0.05751378
10	0xbca548d7	-0.020176334
11	0xbc252e0f	-0.010081782
12	0x3d06aee2	0.032881625
13	0x3d062287	0.03274777
14	0x3b14fc77	0.0022733489
15	0x3dd27800	0.102767944

decoder.10.weight f4 [16]
0	0x3f7c607f	0.9858474
1	0x3f824eb0	1.0180264
2	0x3f69878a	0.9122244
3	0x3f8b6d31	1.0892698
4	0x3f903dbd	1.1268841
5	0x3f96d8c8	1.1784906
6	0x3f8362ae	1.026449
7	0x3f88406d	1.0644661
8	0x3f6d7ba8	0.9276681
9	0x3f7769c5	0.96645766
10	0x3f8eff72	1.1171706
11	0x3f8d3075	1.1030413
12	0x3f94e13d	1.1631237
13	0x3f81eaa3	1.014973
14	0x3f7d4ea9	0.9894815
15	0x3f8867c6	1.0656669

decoder.10.bias f4 [16]
0	0xbeb5ab58	-0.35482287
1	0xbeb0717b	-0.3446158
2	0xbeb5d5f8	-0.35514808
3	0xbf0239c6	-0.50869405
4	0xbed5753f	-0.41691014
5	0xbebec630	-0.3726058
6	0xbf0e4340	-0.55571365
7	0xbefd333d	-0.49453154
8	0xbecd8a65	-0.4014465
9	0xbee34c64	-0.4439422
10	0xbeb7345e	-0.3578214
11	0xbea36f99	-0.3192108
12	0xbf285d3a	-0.6576725
13	0xbe46f4e0	-0.1942935
14	0xbec59f92	-0.38598305
15	0xbec968b9	-0.3933771

decoder.10.running_mean f4 [16]
0	0xbe84a7f7	-0.25909397
1	0xbec034e8	-0.37540364
2	0x3b49bf7a	0.0030784295
3	0xbe954b04	-0.29158795
4	0xbea9b94e	-0.3314919
5	0x3e989e50	0.29808283
6	0xbee4fda5	-0.44724765
7	0xbe8d2c39	-0.27572802
8	0xbde8b27a	-0.11362167
9	0xbeef5a6e	-0.4674868
10	0xbe054bcb	-0.13017194
11	0x3ec56fe7	0.38561937
12	0xbf307c1b	-0.6893937
13	0x3f187499	0.59552914
14	0xbd663860	-0.056206107
15	0xbd0c8f38	-0.03431627

decoder.10.running_var f4 [16]
0	0x3fc02e08	1.5014048
1	0x3fbea667	1.4894532
2	0x3f0f1f8c	0.5590751
3	0x4027fac8	2.6246815
4	0x403521ee	2.830196
5	0x4004e4e5	2.0764706
6	0x3f8337fa	1.0251458
7	0x4000d22c	2.0128279
8	0x3f736cef	0.95088094
9	0x3f9f2580	1.2433319
10	0x3ff6e4c9	1.928857
11	0x3fe63790	1.7985706
12	0x401d5d76	2.4588294
13	0x402f95d0	2.7435188
14	0x3eaf9bca	0.34298545
15	0x3fd62d66	1.6732605
